final_torchscript/torchscript.pt (torch, 31946 bytes, 9 tensors)

weight f4 [32, 8]
000000 bd d3 78 bf f2 41 9e 3f ca 07 a0 be 2c 1b 02 be
       -0.97198087 1.2363875 -0.31255943 -0.12705678
000010 37 57 30 3f f2 de 02 3f a9 e2 74 bf a4 c2 d4 3f
       0.6888308 0.5112144 -0.95658356 1.66219
000020 52 b1 60 bf 36 f5 ec 3e 81 ec 05 3d eb 28 3f 3f
       -0.8777057 0.4628083 0.03269625 0.7467181
000030 b0 b1 4a 3f f1 79 b4 bf 56 5d 90 be 8b 9e bd 3f
       0.7917738 -1.4099714 -0.2819621 1.4814008
000040 a7 ee c2 3f 97 20 d7 be 75 82 37 bf d3 0d 1f 3e
       1.5229081 -0.42017052 -0.71683437 0.15532617
000050 51 be a0 bf d2 2d 3f 3f 64 19 05 3f 72 4f 2a bf
       -1.255808 0.7467929 0.5199187 -0.66527474
000060 34 04 a6 3f ef db 88 3f e6 78 91 be 94 f6 2e 3f
       1.2970033 1.0692118 -0.2841255 0.68345
000070 73 da 7b 3f 9d 77 d4 be f2 a1 11 3e 0b 94 23 40
       0.983802 -0.41497508 0.14221933 2.5559108
000080 23 ed 5b bf ab 15 0b 3f a3 85 bb bd 36 1b 94 3e
       -0.85908717 0.5432994 -0.091563486 0.2892701
000090 6b 04 82 bf 6d c3 8e 3e 7b 94 27 40 1e 51 3e 40
       -1.0157598 0.27883473 2.6184375 2.973701
0000a0 12 5e ab 3e 8f b2 60 3f f6 90 35 be 4e a5 d5 3e
       0.33470207 0.8777246 -0.1773108 0.4172768
0000b0 ab 4b c2 bf b2 4b 07 3f 10 fe 11 3f 1f 42 2e 3f
       -1.5179342 0.52849877 0.57028294 0.6806964
0000c0 83 72 87 3e 03 38 7c bf d4 cf b0 bc 22 8e ae 3e
       0.26454553 -0.9852297 -0.021583475 0.34092814
0000d0 2e c5 8f bf ef 39 87 bf 88 e2 40 3f 42 f2 53 bf
       -1.123205 -1.0564555 0.7534566 -0.8279153
0000e0 1d 1a d3 be ac f3 4c 3f 43 ed 1d be 8c 93 eb be
       -0.4123086 0.80059314 -0.1542254 -0.46011007
0000f0 dd 0c a3 3f 6e 71 95 3f af 52 a5 3d 16 1b 17 3f
       1.27383 1.1675241 0.08072411 0.59025705
000100 17 87 3b 3f 88 74 00 bd 08 d6 f7 be a1 e8 11 be
       0.73253006 -0.031361133 -0.4840548 -0.14248897
000110 01 86 ab 3f 07 33 1a bf e4 d0 a8 3e 54 ec 1d bf
       1.340027 -0.6023411 0.3297187 -0.61688733
000120 90 25 4f 3e fc a0 44 3e a2 52 5b be b4 92 5d bf
       0.20229173 0.19202036 -0.2141824 -0.86551976
000130 22 45 97 3f ec f3 d7 3d a2 30 1b 3f 77 e1 75 3f
       1.1817973 0.10544571 0.6062108 0.9604716
000140 b7 9e 48 be 81 0d 07 bf 06 14 d6 bd 7b f1 94 3d
       -0.19591795 -0.5275498 -0.10453038 0.07272621
000150 0f bf 2c 3f fd a4 46 bf 44 ed 8d bf a8 b8 90 bf
       0.6747903 -0.775955 -1.1088033 -1.1306353
000160 77 6c 42 3e 43 07 80 3e 9c 60 12 bd ab 81 32 3e
       0.18986689 0.2500554 -0.035736665 0.17432277
000170 c9 af df bf 83 55 98 3e ee 7b b4 3f ea b9 aa 3f
       -1.747552 0.2975274 1.410032 1.3337986
000180 dc 4c 7c 3e 74 08 d4 3e 48 f5 25 bd 20 17 ac be
       0.24638695 0.414127 -0.04051712 -0.33611393
000190 67 29 fd 3f e0 e7 83 3e e1 d8 a5 bf 4c 4a 55 bf
       1.977826 0.25762844 -1.2956811 -0.83316493
0001a0 2c a2 1a be db 13 a8 be 5b 3c 24 be 23 61 7a 3f
       -0.15100926 -0.3282765 -0.16038649 0.9780447
0001b0 53 cc e3 3f b4 8d d8 be c4 f0 f2 3e 57 ae bb bf
       1.779673 -0.4229561 0.47449315 -1.4662579
0001c0 9f 5f 07 3f a9 dc 10 bf 8b 9c a1 be 52 3e cc 3e
       0.5288028 -0.565867 -0.31564745 0.39891297
0001d0 33 bc 94 3f 5c 7b 4e 3d 83 17 9c 3e 22 f8 c9 3e
       1.1619934 0.050410613 0.30486688 0.39447123
0001e0 ca 45 0b 3f 9f 27 ce 3f 85 e6 14 be c6 a1 11 3f
       0.54403365 1.6105841 -0.14541061 0.5688747
0001f0 dc b1 3b bf 77 90 19 3f c1 82 2d bf e7 fe 0b 40
       -0.73318267 0.5998606 -0.6777764 2.187433
000200 f5 e2 7f be 63 26 60 be 42 10 69 be ad ca 18 3e
       -0.24988921 -0.21889643 -0.22760108 0.14921065
000210 d0 1d 0a bf f9 55 99 be f5 d7 85 bd d6 fa 2b 3d
       -0.5395174 -0.29948404 -0.06535331 0.041987263
000220 2e 40 3b bf 96 1f e7 be bb 12 37 be b2 b4 40 3e
       -0.73144805 -0.45141286 -0.17878239 0.1881893
000230 c3 46 ce 3f 17 92 11 bf d7 b9 df 3e 52 87 87 bf
       1.6115345 -0.5686354 0.43696472 -1.0588171
000240 96 bb a8 bd 3a eb 05 be 0c d6 a5 bb f6 ca 90 3d
       -0.08238904 -0.13078013 -0.0050609168 0.07069962
000250 0f 31 1b 40 f8 5d e9 3d ae 9b 8f 3f cd 3e e3 bf
       2.4248693 0.11394876 1.1219385 -1.775354
000260 ec dd 92 be 16 67 2f bd 85 aa 86 3d b9 a2 6f 3d
       -0.28684938 -0.04282292 0.06575493 0.058504794
000270 9a 5e 09 40 c1 2c b7 3e d8 41 7f 3f 93 43 df bf
       2.146399 0.35776332 0.99709845 -1.7442497
000280 ab 00 c4 3e 4c d4 41 be 06 99 8e 3d 9c 6a 1f be
       0.3828176 -0.18928641 0.06962781 -0.15568012
000290 6e bb 03 c0 08 c8 6c 3d 54 ec 0e 40 cb 13 7c 3f
       -2.0583148 0.057807952 2.2331743 0.984677
0002a0 86 80 ca 3e ca 58 b7 be 1b a8 a1 3e ea 34 39 bf
       0.3955118 -0.35809928 0.31573567 -0.72346365
0002b0 9b 75 0b c0 d5 c5 27 bf 60 4b 2c be df 87 b1 3f
       -2.179053 -0.6553624 -0.16825628 1.386959
0002c0 f5 7a 8d bf 68 d7 cd 3e a2 eb 3e be f1 e5 91 bf
       -1.1053149 0.40203404 -0.18644574 -1.1398298
0002d0 6c bf 29 3f 9d 19 56 bf 1c b7 17 be bd 9b a7 bf
       0.6630771 -0.8363283 -0.14815944 -1.3094403
0002e0 85 3a fb 3d 73 d0 70 3f da c3 69 3d 65 ce cb 3e
       0.12267021 0.9406807 0.057071544 0.39805904
0002f0 03 79 e8 bf a2 13 81 3a 4d fe 89 3e c8 ba 01 40
       -1.816193 0.000984777 0.2695183 2.0270252
000300 69 5c 2f bf 55 2f 85 bf 4c 54 23 3e e5 c7 3b 3e
       -0.6850038 -1.040507 0.15950125 0.18337972
000310 e9 8f 5d 3f ac 09 97 3d c9 8e b2 bf ec 4a f4 bf
       0.86547714 0.07374892 -1.3949825 -1.9085364
000320 ae b7 62 3e 73 3e 93 be 79 3e 56 be 1a 1e d1 3c
       0.2214038 -0.28758582 -0.20922269 0.025527049
000330 d8 8d d8 bd de df 58 3e 46 de 1e 3d f3 1f 6c 3d
       -0.105739295 0.21179149 0.038786195 0.057647657
000340 32 fa 26 3f e7 21 aa 3f 9b 9c ac bd 62 4d 9e 3e
       0.6522552 1.3291596 -0.084283076 0.30918413
000350 5f 20 e4 bf 4e f6 4e bf ab 19 e9 3e ee 76 54 3f
       -1.7822379 -0.8084458 0.45527396 0.8299397
000360 bc d9 6e be b0 3d 63 bd 1f 3d 19 bd 20 4e 84 3c
       -0.23325247 -0.05547875 -0.037411805 0.016150534
000370 ee fc 15 40 7e 48 8c 3d 11 fb 49 3f 0f 72 b2 bf
       2.3435626 0.06849764 0.7889872 -1.3941058
000380 54 e9 fe 3e 3d cc 2d bf e8 0e 23 bf 1d 3a 6b 3f
       0.4978739 -0.6788977 -0.6369462 0.9188555
000390 20 66 3e 3f 49 74 3e bf bf 92 d0 3e 83 d7 ca be
       0.7437458 -0.7439619 0.40736958 -0.39617547
0003a0 39 a2 b0 be 18 f4 b7 3d 89 15 a6 bd bc 8f 04 be
       -0.34498766 0.08982104 -0.08109576 -0.12945455
0003b0 76 3c 9b 3b a0 ed b1 be 4f 4c 3a be a2 a3 a3 bd
       0.004737432 -0.34751606 -0.18193172 -0.07990195
0003c0 d8 5e 1a bf b6 86 c2 be 15 08 d0 bc f8 67 8c 3d
       -0.6030097 -0.379934 -0.025394479 0.06855768
0003d0 c7 3e cc bf 13 d3 ae be ed 9d 05 c0 79 90 d0 bf
       -1.5956658 -0.34145412 -2.087764 -1.629409
0003e0 5b fc e5 bf 69 a2 6e bf 35 1c 4c 3e 09 55 f7 3e
       -1.7967638 -0.9321657 0.19932635 0.48307064
0003f0 7a f7 87 3f cb e3 db be 5e 9a 57 bd f3 fe 0d bf
       1.0622399 -0.4294723 -0.05263745 -0.55467147

bias f4 [32]
000000 e8 a7 02 3d 7f c9 1d bf 22 1d ce bd 5e f3 3d bf
       0.03189841 -0.61635584 -0.100641504 -0.74199474
000010 fd a0 db 3e 0e 24 5c 3f a6 7f ad 3e a6 3b 5b bf
       0.42896262 0.85992515 0.3388645 -0.8563789
000020 d5 51 4b be 36 05 f9 be 21 c0 e2 be e5 12 bf be
       -0.19855435 -0.48636788 -0.44287208 -0.37319103
000030 9a e4 31 bf a1 5b d0 be b0 74 db be 6e ae 5c 3e
       -0.69489443 -0.40694907 -0.42862463 0.21550915
000040 2c e9 fa bd 4b 2f 20 be ea 24 ac be 98 ac 0a bf
       -0.12251505 -0.15643041 -0.33621913 -0.5416961
000050 94 8c 21 bf dc 58 48 3f 91 bc 87 bc 6c 01 92 be
       -0.6310513 0.7826059 -0.016569408 -0.2851671
000060 9f 67 59 bf ae a3 db be b3 2b b3 be 60 d6 d5 be
       -0.8492374 -0.42898315 -0.34994277 -0.41765118
000070 5c e3 91 be 02 f6 81 be af 68 a0 3e 7a 67 77 be
       -0.28493774 -0.25383002 0.31329867 -0.24160567

weight f4 [32, 32]
000000 84 78 ca 3d 5c 70 31 3f fe 18 60 3d 56 65 fc 3d
       0.09886268 0.6931207 0.054711334 0.12324016
000010 d6 d5 0d bd 32 ce a3 be 9b ec b1 bb c4 83 37 3e
       -0.034627758 -0.31993252 -0.005429817 0.17921358
000020 2b 88 13 3f 9a c9 87 be ea 5c 9f 3e 72 bf a0 be
       0.5762965 -0.26520997 0.31125575 -0.3139606
000030 bb 06 6c 3e f6 43 25 3e 9c 43 7e 3e e1 91 b6 bd
       0.23049442 0.16139206 0.24830478 -0.08914543
000040 5d 2f cf bd 72 36 6c 3e 02 d0 ae bd a2 6e a6 3e
       -0.10116456 0.23067644 -0.08535768 0.3250628
000050 07 b1 52 be 1d 07 2e be d0 78 a9 3e 10 14 2b 3c
       -0.20575343 -0.16994901 0.33099985 0.010441795
000060 b4 53 1e bd f9 0d 0e 3d 4d 9f 39 3e 2f 83 8a 3e
       -0.038654044 0.034681294 0.18127175 0.2705321
000070 49 8b 21 3e f2 f7 0a 3e a3 39 e1 bd 69 3f 93 3d
       0.1577579 0.13571146 -0.109973215 0.07189829
000080 aa 60 35 3f 38 5f c7 3f 98 27 ea be 71 b3 b7 3f
       0.7085062 1.5575933 -0.45733333 1.4351636
000090 63 ac f8 3e d6 2d 53 be f2 6d 4e bc 6b 57 b6 3e
       0.4856902 -0.20622954 -0.012599455 0.3561357
0000a0 76 17 8e 3f 17 ff 20 3f e2 d9 46 be 94 dd 1f 3f
       1.110091 0.62889236 -0.19419053 0.62447476
0000b0 61 56 06 bf 5f d3 0d 3f 53 12 c1 3e f0 5f 4e be
       -0.52475554 0.5540065 0.37709293 -0.20153785
0000c0 f6 b6 59 bd f9 24 f4 3e c6 c7 0d bf fe 68 fd be
       -0.053153 0.47684458 -0.55382955 -0.49494165
0000d0 37 a0 b0 3d 9e 7b 43 be 05 8d 83 3e 51 b0 16 3e
       0.086243086 -0.19090125 0.25693527 0.14715697
0000e0 3a f3 19 3f a6 dc 1a bd 43 34 76 3f 30 06 8b bd
       0.6013676 -0.037808083 0.96173495 -0.067882895
0000f0 5f 1a 40 3f fc 79 18 3e 7e e6 08 3e b5 20 33 3f
       0.7504024 0.14890283 0.13369176 0.6997178
000100 0d 9f cd 3e e6 55 02 3f 04 88 05 bd 7b 97 d0 be
       0.4016041 0.5091232 -0.032600418 -0.4074057
000110 7d 94 46 3f 49 c4 32 be e3 08 db be 14 b5 16 bf
       0.77570325 -0.1745769 -0.42780218 -0.58870053
000120 eb 50 17 3f 8e 27 09 3e a8 07 a9 be af 8e 21 3f
       0.59107846 0.13393995 -0.33013654 0.6310834
000130 b4 52 54 3f 02 0d eb 3d 93 dc 0e bd 3e c0 ab be
       0.82938695 0.114770904 -0.034878325 -0.33545107
000140 87 55 18 be d1 21 3a 3f 14 45 f9 3e a8 3f 2e 3f
       -0.14876376 0.7270785 0.48685515 0.6806588
000150 c9 99 66 3f d8 19 3c bf 73 b1 2d bf 1e 63 1d 3e
       0.9007841 -0.73476934 -0.6784889 0.15369841
000160 c5 ba 4c 3f 20 ac 0b bd 7e f8 8d be 1a 46 e9 3e
       0.7997249 -0.034099698 -0.27728647 0.45561296
000170 e5 14 de 3f ed 85 b6 3c 9f 68 05 bf dc b8 aa 3e
       1.7350127 0.022280658 -0.52112764 0.33344162
000180 bf 45 50 3c 14 ca e6 bd 6b 31 02 3f 86 e4 10 3f
       0.012711941 -0.11269012 0.50856656 0.565987
000190 c6 2f ef bd 23 eb 51 bd 47 86 64 bd 17 f5 8d 3e
       -0.11679034 -0.051249634 -0.05579212 0.2772605
0001a0 36 35 b6 3f 99 48 48 bd 34 86 86 bd 1a 5e 60 be
       1.4234989 -0.04889736 -0.06568566 -0.21910897
0001b0 4e 6d 04 3e 6b e1 da 3d 78 d5 03 3f 88 a2 0b 3b
       0.12932321 0.10687526 0.514976 0.0021306593
0001c0 fc ab ed 3d 3b 3b 60 3e 70 0b 88 be 25 fb 13 3e
       0.11605069 0.21897595 -0.26571226 0.14451273
0001d0 ec a8 75 bb 0e 0d 89 bd 74 53 c8 bd b7 13 11 be
       -0.0037484718 -0.06691943 -0.097815424 -0.14167677
0001e0 bd 60 94 be 68 29 1c be 9a 24 ba be 5f 01 69 bd
       -0.28980055 -0.1525017 -0.3635605 -0.056886073
0001f0 02 ab 50 3e 77 27 74 3c 74 01 c4 3d e0 c4 b2 bd
       0.20377734 0.014901987 0.0957059 -0.08728957
000200 5b f4 f5 3c 62 f3 4b 3e 66 fd ff be b9 54 d1 be
       0.030023744 0.19917062 -0.49998015 -0.4088495
000210 02 63 98 3e e8 8a cd bf c0 e2 1a 3a 37 39 48 bd
       0.29763037 -1.6058016 0.0005908422 -0.04888269
000220 76 35 59 be 19 2e d5 bf b7 83 1d be 7e 59 ce 3e
       -0.212118 -1.6654693 -0.15382276 0.40302652
000230 0f c8 c8 3e fd 37 9d bc 30 4f 26 bf 6c 1d 8d be
       0.39215133 -0.019191736 -0.6496458 -0.2756151
000240 9c 06 d9 3d 32 ff 43 bf a4 2c a9 be 4e 5e 57 3e
       0.10596964 -0.7656127 -0.3304187 0.21032068
000250 34 fc 1a 3e dc c9 1a be f1 c3 71 bd ab a3 aa be
       0.1513527 -0.15116066 -0.059024755 -0.33327994
000260 0b 44 a6 3e f3 c1 17 3e 48 b3 ea bd c1 97 52 3d
       0.32473788 0.1482008 -0.114599764 0.051414255
000270 26 8a 91 bd 44 46 98 3d 1a 09 9e 3f de 9c d5 be
       -0.07106428 0.07435277 1.2346528 -0.41721243
000280 e1 bc 3f 3f ca 61 fb 3f f1 0b b6 be 83 10 25 3f
       0.7489758 1.9639218 -0.35555986 0.6447832
000290 a0 cb 43 bf 97 9d 03 bf c2 7c d1 3f 96 c0 db 3f
       -0.7648258 -0.5141234 1.6366198 1.7168148
0002a0 58 47 e3 3f b7 1a 04 3f 72 a0 3a bf a5 32 d0 3e
       1.7756147 0.51603264 -0.7290107 0.4066364
0002b0 69 cc 42 3f fd 23 f5 be be bb 30 be 35 54 ea be
       0.76093155 -0.4787902 -0.17259118 -0.4576737
0002c0 c6 1a 8a bd 37 0b 17 3e d0 be 1d 3e 40 a8 d6 3e
       -0.06743388 0.14750372 0.1540482 0.4192524
0002d0 99 d4 81 3f c6 13 b5 bf 2c ba 64 3e 1d 79 e8 bd
       1.0143005 -1.4146659 0.22336644 -0.113512255
0002e0 b8 52 86 3e 20 c0 ee 3d 87 7a b5 3e 07 e3 d2 3d
       0.26234984 0.11657739 0.35445043 0.10297208
0002f0 47 03 e5 3f cd 6e 0a be 3e 3d 84 bf 78 30 8b 3d
       1.7891625 -0.1351883 -1.033119 0.06796354
000300 a4 53 92 3c bf 45 16 be 08 a8 ef bd 82 35 cf 3d
       0.017862149 -0.14675044 -0.11701971 0.10117628
000310 16 2c 2f bd ab a6 0c bd 7a 96 87 bd 73 07 4c 3d
       -0.042766653 -0.034338634 -0.06620498 0.04981179
000320 1d d7 71 3d df d5 ae 3d 1c b2 3f be 78 b4 43 be
       0.05904304 0.085368864 -0.18720287 -0.19111812
000330 14 dd 43 bc ee d1 e8 bd 5c 8f 09 bc 93 46 b6 bd
       -0.011954565 -0.11368166 -0.008395996 -0.0890018
000340 4b 59 99 bd 51 4f 87 be a5 0c 58 be 1b 3c 7a bd
       -0.074877344 -0.264277 -0.21098574 -0.061092477
000350 cb ee e5 bd be 46 87 bd f1 36 bc 3b 08 98 ef 3c
       -0.11227187 -0.0660529 0.005743854 0.029247299
000360 1a 84 38 3d ad 88 c8 3d b0 4e 5b bd 83 28 a9 bd
       0.045047857 0.09791694 -0.05354184 -0.0825968
000370 bf c4 a6 bd a0 cb b7 bd 64 ea e0 bd 65 cc 43 3d
       -0.08142995 -0.08974385 -0.109822065 0.047802348
000380 ab 39 5c 3f 4b 7d dd 3f b4 ba 0a bf 2b e6 5f 3f
       0.86025494 1.7303861 -0.54191136 0.87460583
000390 5d 46 80 bf ad a6 a1 bf 84 cc 53 3f fa b6 88 3f
       -1.0021473 -1.262899 0.8273394 1.068084
0003a0 f0 09 74 3f d9 77 3a bf 86 ce 02 3f c5 94 fe 3d
       0.95327663 -0.72839123 0.5109638 0.12430719
0003b0 9c dd 03 3f 03 1a f0 bd 81 3e 18 3f a5 29 e3 be
       0.51510024 -0.11723711 0.59470373 -0.4436771
0003c0 69 b4 cf bd 08 c7 cc be 50 c7 27 3f cf ca cf 3e
       -0.101418324 -0.399956 0.655385 0.40584418
0003d0 6f e2 03 3f 61 69 ee be 9b c9 62 bd ba f8 05 3d
       0.51517385 -0.46564773 -0.055368047 0.032707907
0003e0 5c e9 5b bf 1a 14 a0 bd cc 19 f1 3e 6e 49 0f 3d
       -0.85902953 -0.07816334 0.47089994 0.034982137
0003f0 d6 f0 21 40 95 19 da bd ee 68 36 3e d6 6c 9b be
       2.5303245 -0.10649411 0.17813465 -0.30356473

bias f4 [32]
000000 4d b9 d9 be f2 af af bf 89 3a 89 bf 0f e1 22 bf
       -0.42524186 -1.3725569 -1.0720989 -0.6362466
000010 cb 48 7d bf 1e b5 95 be a7 1a f7 bd 2d 43 03 be
       -0.989392 -0.29239744 -0.120656304 -0.12818594
000020 ad 70 91 bd 64 e6 7d bf 7b be d1 be 33 d7 6d bd
       -0.07101569 -0.99179673 -0.40965638 -0.058066558
000030 da 55 55 bf e5 5f 2d bf 74 d7 86 be 3a e1 36 bd
       -0.83334124 -0.6772445 -0.26336253 -0.044648387
000040 fe 62 30 3e cc 76 9e be 23 fc c8 bf e2 4c 70 bf
       0.17225263 -0.3095001 -1.5701946 -0.93867314
000050 bc 3a 9f 3e 82 c7 66 3f cf f8 c2 bf 89 27 e6 bd
       0.31099498 0.90148175 -1.523218 -0.112380095
000060 86 bd 0e 3d ea e4 16 bf 7f d8 c4 be 35 d4 d4 bd
       0.034848712 -0.58943045 -0.38446423 -0.10392038
000070 92 2d 3b be c1 ba 8c 3f 0e 2a 4d bf 46 44 99 bc
       -0.18279102 1.0994493 -0.80142295 -0.018709313

weight f4 [32, 32]
000000 a0 eb 4f bd b6 64 58 3f 2e 2c 22 be ee cc 49 be
       -0.05076182 0.8452867 -0.15837166 -0.1970708
000010 0b 31 cc 3c 43 dd 78 3e d7 12 15 3d e0 3c d3 bd
       0.02492573 0.24303155 0.03639492 -0.10314345
000020 86 f3 65 bd ce 81 9b be 0e b5 01 3e 7b 52 32 3d
       -0.056140445 -0.3037247 0.12666723 0.04353569
000030 be 55 d7 be b6 2c 02 3e 7f d8 c4 3b 97 ad ac be
       -0.42057604 0.12712368 0.0060072537 -0.3372619
000040 28 15 15 bf 74 0a 68 be 21 06 1f be 86 97 a6 3e
       -0.58235407 -0.22660238 -0.15529682 0.32537478
000050 31 7d 6e 3e a1 93 9b be 8c dd 61 bc fc be f4 3d
       0.23289944 -0.3038607 -0.013785731 0.1195049
000060 a7 3c a0 3d a2 2f 91 be 56 08 04 bf e6 77 bb bd
       0.078240685 -0.28356653 -0.5157522 -0.09153728
000070 54 72 98 3c c6 7b 6f 3e 56 bf 97 3e c2 26 af 3d
       0.018609203 0.2338706 0.29638165 0.08552314
000080 78 a1 8c 3b 32 c5 f0 3d 43 af 0e bf 7e d6 91 3e
       0.0042917095 0.11756362 -0.5573618 0.28483957
000090 4d 75 0b bf 53 a0 4f be 6f 2b d4 bd 10 42 c3 3e
       -0.5447586 -0.20276003 -0.10359847 0.3813634
0000a0 8c 27 d6 3d 2f 0b 19 bf 67 1a d9 bc fa 64 b0 3d
       0.10456762 -0.5978269 -0.026501847 0.0861301
0000b0 f1 b6 9c bf c0 78 bc 3e 36 ac 00 be da 23 18 bf
       -1.2243329 0.36810875 -0.12565693 -0.59429705
0000c0 29 9f 86 bf 63 5f 0b 3e 4a ad 63 3e 99 68 ee 3e
       -1.0517322 0.13610606 0.22234073 0.46564177
0000d0 1e da 24 3f 6a c0 3b bf b4 65 9c 3e 0a 22 ab bd
       0.6439532 -0.73340476 0.30546343 -0.08356102
0000e0 77 bd 34 3e 86 22 86 bf 03 b3 de 3e e8 a6 ed 3c
       0.176504 -1.0479286 0.4349595 0.029010251
0000f0 e8 4c 9c 3d 20 36 89 bd 71 bd 26 3f ef da bc 3d
       0.07631856 -0.06699777 0.65132815 0.09221446
000100 4e 25 55 3d 1a 12 0b 3f 8c e6 b1 be df 6e 21 be
       0.05203753 0.54324496 -0.34746206 -0.1576495
000110 7a e5 b8 3e 7e e1 c0 3d 64 27 f1 3d 39 ad c1 bc
       0.36112577 0.09418009 0.11775091 -0.02364217
000120 da a7 33 3e c9 f3 27 be ee 7b 26 3e 32 44 0a 3e
       0.17544499 -0.1640159 0.16258213 0.13502577
000130 3c 4e 9f 3e 2b fd 38 3f 00 ee ed bc 9e b7 80 3e
       0.31114376 0.72261304 -0.029044151 0.2514009
000140 d5 84 52 be a6 e1 bf bd 92 04 9e 3f 6e d9 46 3f
       -0.20558484 -0.09369211 1.2345145 0.7767552
000150 ec ad 49 be f1 ce c8 bd 81 43 97 3e 9b e1 10 bd
       -0.19695252 -0.09805096 0.2954369 -0.035371404
000160 1a ea 4d bf c3 cb a0 3e 6a 38 ae 3e 70 4c bc bd
       -0.80435336 0.31405458 0.34027416 -0.09194267
000170 1e 37 a3 3b 00 bd 15 bf 55 74 f9 3e 1e 46 ab 3d
       0.0049809357 -0.58491516 0.48721567 0.08362983
000180 74 b0 52 3b d4 04 89 be 20 7f c6 bd d4 b0 8e 3e
       0.0032148631 -0.26761496 -0.09692216 0.27869284
000190 9d e5 1c 3e d2 76 10 3f 10 4e 12 bd c6 a6 7d 3e
       0.15321966 0.56431305 -0.035718977 0.2477065
0001a0 bc 0a 8a 3c c0 f4 d6 be 10 54 05 3f 64 6e 1a be
       0.016850822 -0.41983604 0.52081394 -0.15081173
0001b0 b2 29 ac 3e fd 34 17 3e 53 07 a1 bd b1 2c 8a 3e
       0.3362556 0.14766307 -0.07862725 0.26987222
0001c0 d6 54 e1 3d 0e ee c4 3d 22 10 28 3f b7 8a e6 3e
       0.11002509 0.09615718 0.65649617 0.45027706
0001d0 aa e0 f4 bf 41 9b 54 3e 80 81 c1 bd b6 24 06 3e
       -1.9131062 0.2076235 -0.09448528 0.13099942
0001e0 d9 e0 c2 be 71 01 af 3e 07 03 8f be b4 a8 58 3c
       -0.3806217 0.34180787 -0.27931997 0.013223816
0001f0 ee 23 f6 bc 01 99 cc bf 68 c3 ee 3e e0 74 e0 bd
       -0.03004643 -1.5984193 0.46633458 -0.10959792
000200 d2 97 91 3b c2 a8 72 3d 51 87 2a bf d7 86 d6 3d
       0.004443147 0.05924297 -0.66612726 0.104749374
000210 75 a8 d4 be 14 50 50 3d de 1e 6c bd 16 57 06 3e
       -0.41534773 0.05085762 -0.057646625 0.13119158
000220 54 da 9e bd 21 77 44 bf c6 1d a4 be e9 7f e0 3d
       -0.077564865 -0.76744276 -0.32053965 0.10961897
000230 83 b5 68 bf f0 d3 ad 3d e0 a5 a9 3d a3 c5 16 3e
       -0.90901965 0.084876895 0.08283591 0.1472383
000240 6f f7 61 bf e2 3a d9 be 0d 8a 13 bf 41 c9 0b 3f
       -0.8826818 -0.42427737 -0.57632524 0.54603964
000250 ca a5 0f 3f 74 b2 22 bf 8e 88 3f 3e 9c ca fb bd
       0.5611235 -0.6355355 0.18704435 -0.12294504
000260 89 d2 77 3e 41 c3 d7 bd 3f e7 7b 3e 00 20 3e 37
       0.24201407 -0.105352886 0.24599932 1.1332333e-05
000270 52 58 c6 3d eb 40 05 bf b8 e7 92 3e 07 c1 3f 3d
       0.096848145 -0.5205218 0.28692412 0.046814945
000280 45 74 88 3e 8a 17 f0 be 0d 2c 5a be b1 94 4a be
       0.26651207 -0.4689296 -0.21305867 -0.19783284
000290 97 c2 05 3f 89 42 12 3e 66 a5 24 bd 42 4e 33 3e
       0.52250046 0.14283194 -0.0401968 0.17510322
0002a0 4c 9e e9 bd b2 92 78 3e b6 98 ac 3e 9d 33 cf 3d
       -0.11407146 0.2427471 0.3371026 0.10117266
0002b0 3d 5e de 3d 19 6d cc 3d d8 29 15 3e 68 6a c5 3d
       0.10857818 0.09981746 0.14566743 0.09639436
0002c0 ec 3f 6e be 39 56 a8 be 40 c7 99 3e 3b f9 a4 be
       -0.23266572 -0.32878283 0.30034828 -0.32221398
0002d0 0e 87 86 3c ab 07 fc 3d 8e c0 92 3e f0 b6 36 bd
       0.016421821 0.1230615 0.28662533 -0.044608057
0002e0 b0 34 6e be 4b c8 28 3d 0e 8d c9 be 74 3b a4 3d
       -0.23262286 0.04120664 -0.3936543 0.08019152
0002f0 ee 61 79 3c 6f 27 10 3e 16 28 b2 be 8e c4 99 bd
       0.015221102 0.14077543 -0.34796208 -0.07508193
000300 14 51 90 3e bf 11 95 3d a6 ac 1f bd 1e 88 5a bc
       0.28186858 0.072787754 -0.03898301 -0.013338117
000310 e4 05 67 3e 1a 5b 17 be c7 61 8d 3d 18 8b 8c bc
       0.22560841 -0.14780846 0.06903415 -0.017156169
000320 a6 99 cf 3d d6 63 26 3d 9a f6 54 3e 84 cf 07 3e
       0.10136728 0.040622555 0.20797196 0.13262755
000330 db 29 fd 3e eb 2e e1 bd 81 f0 cc bd f9 a3 a2 3d
       0.49445996 -0.10995277 -0.1000681 0.079414316
000340 17 1f ca be 9c 4f 53 be 9e d3 a8 3e 51 77 49 3d
       -0.39476845 -0.20635837 0.3297395 0.049186055
000350 62 9f 4b bc 7e 74 9e bd 7a 6f 04 3c 47 1d 2d bd
       -0.012428137 -0.07737063 0.008083219 -0.04226425
000360 50 cb ec be d5 ea e2 3d 1b 04 08 3d 5e 29 13 bd
       -0.46248865 0.11079947 0.03320704 -0.035928123
000370 cd ea 17 3e 99 29 98 bd 7d c5 c7 bd a6 6a 92 bd
       0.14835663 -0.07429809 -0.09754465 -0.07149248
000380 58 64 23 be 85 bd 04 be c0 bc b1 bb 50 d9 41 bb
       -0.15956247 -0.12962921 -0.005424112 -0.0029578991
000390 ee f8 fe 3c 60 0c df 3c 34 41 08 3d 76 78 79 be
       0.031124558 0.02722758 0.033265308 -0.24362358
0003a0 19 f7 04 be 26 f5 9d be 83 18 e3 3d 86 58 06 be
       -0.12984885 -0.30851096 0.110886596 -0.13119707
0003b0 61 a0 8b bd a8 21 da 3d ae c7 3d bd d0 8b 2a 3c
       -0.06817699 0.10650951 -0.046333008 0.01040931
0003c0 d9 a6 a0 be e7 32 10 3d 36 c0 1b be 2e 85 10 be
       -0.31377295 0.035204794 -0.15210041 -0.14113304
0003d0 5e ff ec bd a5 88 94 be d6 29 b4 bd 85 db 50 be
       -0.11572145 -0.29010502 -0.08797042 -0.2039624
0003e0 ba af b5 3d 7c b9 5d be 94 3e 6f bd 2e 9d 00 be
       0.08871408 -0.21652788 -0.05840929 -0.1255996
0003f0 01 09 0c 3e fa c7 0b bf dd 22 92 bd 14 41 bc bd
       0.1367531 -0.54602015 -0.07135556 -0.091921

bias f4 [32]
000000 fd 63 42 bf e8 59 c8 3d a8 7b e0 be 57 31 58 bf
       -0.7593382 0.09782773 -0.43844342 -0.84450287
000010 eb 98 0e 3f e2 e4 19 be 01 f2 2a bf 6d 26 d0 be
       0.55702084 -0.15028718 -0.6677552 -0.40654317
000020 4a 9e 6b be 26 90 23 bf fd 3b 20 bf a6 c8 7b 3e
       -0.23009601 -0.6389183 -0.62591535 0.2458826
000030 44 48 d3 3e 4b 9e 57 bf 3b bb 91 be 72 e6 38 be
       0.41266072 -0.8422591 -0.28463158 -0.18056658
000040 5c c2 52 bf a4 29 86 bf 77 09 8b be 51 bb a1 bf
       -0.8232782 -1.0481458 -0.2715566 -1.263529
000050 ea ec 05 bf c5 56 e0 be 1c 75 e0 be b5 52 b7 bd
       -0.5231463 -0.438162 -0.43839347 -0.08951322
000060 44 75 62 3e fc 50 2c be a5 85 39 be 7c 04 48 3f
       0.22115046 -0.16827768 -0.18117388 0.7813184
000070 70 08 9c be d2 ff f9 be 84 e0 79 bf e6 3f 8b bf
       -0.30475187 -0.48827988 -0.9760821 -1.0878875

weight f4 [32, 32]
000000 b2 93 0c be 46 f9 20 be 7d 13 d5 3d c4 af 02 be
       -0.13728216 -0.1572009 0.10404108 -0.12762362
000010 1a b3 6d be 17 7b 2e be 61 8d 23 3e e3 a6 ed bd
       -0.23212853 -0.17039143 0.159719 -0.11604097
000020 aa cc 16 be 00 41 7d b9 5e a3 9d bd c0 3c 74 3b
       -0.1472651 -0.00024152175 -0.076971754 0.0037267655
000030 10 04 f4 bb a0 c2 b6 3c cd 5b 1d be 53 51 03 be
       -0.0074467734 0.022309601 -0.1536705 -0.12823991
000040 58 e3 b7 3c 25 eb 8d bd 76 d1 24 be 7b 32 6b be
       0.022447273 -0.06929616 -0.16095528 -0.22968476
000050 14 94 28 bd f8 00 04 be bf 8c 43 3d ac 66 34 be
       -0.041156843 -0.12890995 0.047741648 -0.17617291
000060 8b 39 fe bd 44 31 f2 bc fc 08 fd 3c 58 1a e3 3c
       -0.12413319 -0.029564507 0.030888073 0.027722523
000070 48 42 65 bd a0 eb 8f bd 58 11 fc bd 64 e6 0d 3e
       -0.055971414 -0.07027364 -0.123079956 0.13857418
000080 17 1e 18 be e2 09 0d be 73 a3 13 3f c8 ee 43 bc
       -0.14855228 -0.13773301 0.5767128 -0.011958785
000090 b5 94 26 bf f7 d6 97 bd 6f 70 e7 bd 09 f8 c5 bd
       -0.6507066 -0.07414048 -0.11300742 -0.096664496
0000a0 44 b3 cd bc f5 e8 bb be 95 95 50 be 37 ef 8c be
       -0.025109895 -0.3670117 -0.20369561 -0.27526256
0000b0 48 82 c6 3c 4c c7 08 be 14 ca 89 bc e3 5b 6a bd
       0.024232045 -0.13357276 -0.016819991 -0.057216536
0000c0 34 5b 02 3e d9 0c cc bd 1f 65 41 bd 38 70 aa be
       0.12730104 -0.09963388 -0.047215577 -0.3328874
0000d0 2b 56 f7 3d ce b9 54 3d de 10 13 3f 1c b8 f4 bd
       0.12076982 0.05193501 0.5744761 -0.119491786
0000e0 d8 7a 86 3e 0c 1c 8d 3e 9c 18 f1 bd 74 09 21 bf
       0.26265597 0.2756046 -0.11772272 -0.6290505
0000f0 e8 21 dd 3d 5b 62 88 be 60 ae 7f 3e 58 9c 93 3e
       0.10797483 -0.2663754 0.24968863 0.28830218
000100 8a 73 7f bc e2 4d ca bc 7b e7 9d 3d b6 38 7c bd
       -0.0155915115 -0.02469534 0.07710167 -0.06157752
000110 70 4c 07 3e 75 01 ec bc a3 c9 f6 bd ab 77 a0 be
       0.13212752 -0.028809289 -0.12050178 -0.313413
000120 fd 1e 89 bc 13 44 41 be d0 b1 31 be 07 15 26 3d
       -0.01673841 -0.18873625 -0.17352986 0.040547397
000130 fd 2c bc 3c 4a ea 86 3d 02 93 c7 3c 1f 76 a0 bd
       0.02297067 0.06587656 0.024362091 -0.0783503
000140 d0 c8 1f 3c 71 23 71 be ca 8c 23 3d 78 c7 78 be
       0.009752467 -0.23548676 0.03992919 -0.24294841
000150 ca 36 a6 be a3 38 6b be a7 34 de bd dd 04 26 be
       -0.32463676 -0.22970824 -0.108498864 -0.16212793
000160 c8 db 02 be 64 c2 c6 3c 34 09 12 be 61 ec 5b be
       -0.12779152 0.024262615 -0.14261323 -0.2147689
000170 00 73 81 3d 82 eb c6 bd 46 47 4e be eb cf e8 3d
       0.06320763 -0.09712888 -0.20144376 0.11367782
000180 7a 39 cf bd d4 b9 bf bd ca a2 fb bd 27 91 a0 bb
       -0.10118385 -0.09361616 -0.12286909 -0.004900116
000190 e4 cb 34 3e 07 34 36 be 4d 59 99 3d ee e4 33 3e
       0.17655903 -0.17793284 0.07487736 0.17567798
0001a0 c8 78 03 3d c7 2f fe be 15 e1 81 bd 9d c5 71 bd
       0.032097608 -0.49645826 -0.06341759 -0.05902635
0001b0 f6 ee 89 be d8 29 ad 3d b7 8f e0 bd c8 f0 cc 3d
       -0.26940125 0.08455247 -0.109649114 0.10006863
0001c0 13 3c fc bd 8e 22 18 3d 36 c7 10 3e ac 81 5e 3e
       -0.12316146 0.03714233 0.14138493 0.21729153
0001d0 fb f4 ba be 3d 33 81 3d eb 33 88 be 80 ec 32 3d
       -0.3651503 0.06308601 -0.2660211 0.043682575
0001e0 2a f3 7e 3d 79 77 ac be 48 7e a4 bd 61 b0 35 be
       0.062243618 -0.336849 -0.08031899 -0.17743064
0001f0 8f 52 45 bc f3 34 63 bd 45 64 04 be 40 35 43 bb
       -0.012043609 -0.05547042 -0.12928875 -0.0029786378
000200 77 17 83 3c 7f a8 be bd 8b 7b 2a 3d 92 11 d0 3d
       0.0160024 -0.09309482 0.041621726 0.10159601
000210 5c ef 6b bd 77 6b bc bc ab f8 82 bc 48 61 2a 3c
       -0.057601318 -0.023000462 -0.015987715 0.01039917
000220 2e 0f b5 3d 2a 2a 3c be 39 ae d6 3c d7 39 bd 3d
       0.08840786 -0.1837546 0.026206123 0.09239548
000230 11 1c 9f bd 48 f8 2c 3e 2e 50 8f bd 8c df b4 bc
       -0.07769025 0.16891587 -0.06997715 -0.022079252
000240 d0 17 19 3e d3 a0 d8 bd 9c a9 e3 bd 3d a5 8a bd
       0.1495049 -0.1057755 -0.11116335 -0.06769798
000250 be 46 15 bd 1e dc be bd 4e 9b 0d 3e 5a 7d a1 bc
       -0.036444418 -0.09319328 0.13828775 -0.019713093
000260 d7 88 1d 3d 9e 80 54 bd cb 4f b9 bc 82 bd 56 be
       0.03846058 -0.05188047 -0.022621056 -0.20970729
000270 e9 e0 ef bc b0 c3 cd bd f0 a4 bf bb 1f 69 f4 bd
       -0.02928205 -0.1004709 -0.0058485195 -0.11934113
000280 ae 52 de 3e 04 f8 95 3e 0c 84 a2 bd a0 4d 8a 3d
       0.43422455 0.29290783 -0.07935342 0.06753087
000290 a1 ee 34 3d 43 43 e7 bd e2 f7 6a 3e d0 a2 49 bc
       0.044172887 -0.11292126 0.22946122 -0.012306884
0002a0 49 3c 5b bd 74 a1 91 bf 69 d5 50 3d 78 5c 5e 3e
       -0.05352429 -1.1377397 0.050984774 0.21714962
0002b0 4a 99 02 be 65 ac 09 3d d9 d7 1e be 21 f8 8c 3d
       -0.12753788 0.033611674 -0.15512027 0.06883264
0002c0 a6 5f f9 3a 76 eb 3d be 98 ba 26 be 2c 9f 1e 3f
       0.0019025698 -0.18546852 -0.16282117 0.61961627
0002d0 eb c7 18 bf 0b cb 45 be 51 2d 94 bc 3e 4d 5a 3e
       -0.5968005 -0.19315736 -0.018088015 0.21318528
0002e0 1a c6 d5 3e 93 09 fe be 11 a0 13 3e ec 0c da 3d
       0.41752702 -0.4961668 0.14416529 0.10646996
0002f0 e6 a7 ed bd b5 dd 5b bb 6f 90 85 bd 61 89 2e 3d
       -0.1160429 -0.0033548896 -0.06521689 0.042611483
000300 db 86 d0 bd 85 4c 8d bf 06 64 59 3e 3d 10 9c 3d
       -0.10181972 -1.1038977 0.21229562 0.07620285
000310 c3 4c b0 bf 30 50 87 3d 57 db 40 be b4 ae 21 3e
       -1.3773426 0.066070914 -0.18833672 0.157893
000320 b5 67 ff bc 2c 95 6e 3e 3d 28 71 bf b3 a0 d6 be
       -0.031177381 0.23299092 -0.94202024 -0.4191948
000330 3b 43 91 3f 8c 39 ce 3d 54 be 72 bc 37 e2 d3 3e
       1.1348642 0.1006957 -0.014815886 0.41383526
000340 d9 e9 da bb 24 f5 18 3f c0 da 13 3f 6b 5f 84 bf
       -0.006680709 0.59749055 0.5775566 -1.0341619
000350 8b 4b ad 3e 46 1c e8 3e 0c 35 f3 bd c9 52 cd 3d
       0.33846697 0.4533407 -0.11875352 0.10025556
000360 60 9f b3 3e d6 d5 03 3f 0c 89 e7 bc b2 58 42 bf
       0.3508253 0.5149816 -0.028263591 -0.7591659
000370 ea c7 60 bd f9 17 fa bd 6f 90 f5 3c 11 72 31 3e
       -0.054878153 -0.12211604 0.029976098 0.17328669
000380 ad 64 bf bd 2c b2 28 be 22 8e a7 be ab 27 01 3e
       -0.09345374 -0.16474217 -0.32725626 0.12612788
000390 86 6a 0c bd 0c db 24 be 7c 0e d5 3d eb f9 dd bd
       -0.034281276 -0.16099185 0.10403153 -0.10838684
0003a0 f8 f4 91 3d 3c 30 21 be 0b 45 b1 be 5e 00 20 be
       0.07126802 -0.15741056 -0.34622988 -0.1562514
0003b0 92 32 4a 3c a8 54 6d 3d 57 25 a5 bd ae ec fb bc
       0.012341158 0.057942063 -0.08063763 -0.030752506
0003c0 60 74 20 be 13 06 f9 bd 9f 51 4e bd d5 4c 4f be
       -0.15669394 -0.12159362 -0.05037081 -0.20244153
0003d0 ee 90 ff bd 6e 02 e0 bd 57 58 3b 3e c2 18 a0 3d
       -0.12478815 -0.109379634 0.18295418 0.07817222
0003e0 7c 6f 8c bd 92 7a 66 bd 81 4c b0 3b cb 0c e6 bd
       -0.068572015 -0.056269236 0.0053802137 -0.11232909
0003f0 ac 00 2f be ad 01 43 be 1a 4f 99 3d d5 6a 38 3e
       -0.170901 -0.19043608 0.074857906 0.18009503

bias f4 [32]
000000 8d ef 4c be f8 ab 50 bf 96 f5 68 be 28 f5 bc be
       -0.20013256 -0.81512403 -0.22749934 -0.3690579
000010 b8 d9 3b be 64 76 64 be 3d ae 3d 3f ec 06 94 be
       -0.18344772 -0.22310787 0.7409399 -0.2891153
000020 a3 a7 60 3f 74 f4 2e bf 44 44 24 be f9 7b 95 be
       0.87755793 -0.68341756 -0.16041666 -0.29196146
000030 40 e7 ad bd ab a6 68 be ce c6 b6 be de 47 82 be
       -0.08491373 -0.22719829 -0.3569855 -0.25445455
000040 6a 60 a0 3f 62 bc 1c be af 31 5a be 1e 86 08 be
       1.2529423 -0.15306237 -0.21308015 -0.13332412
000050 87 65 bd 3e b5 2b 31 be f9 b8 83 be d8 e9 c9 bd
       0.36991522 -0.17301829 -0.2572706 -0.09859055
000060 d5 10 26 3f 56 a5 83 be b2 eb 4c be 08 49 b9 bd
       0.64869434 -0.2571208 -0.20011786 -0.09047133
000070 3e 51 6f be 09 4c 11 be 70 4a 22 bf 10 79 34 3f
       -0.23370835 -0.14189161 -0.6339483 0.70497227

weight f4 [1, 32]
000000 44 c4 10 bd e3 96 f1 3b 8b 8b 16 3d b9 19 26 bd
       -0.035343423 0.0073727234 0.036754172 -0.040551875
000010 30 f2 8c bb d5 e4 53 3d e3 26 5a be d9 db 05 bd
       -0.004301332 0.051731903 -0.21303897 -0.032680366
000020 20 6d 0b 3e 1a e3 15 bd 30 2b 62 3c 08 c6 bc bc
       0.13615847 -0.036593534 0.013804242 -0.023043647
000030 b8 39 b3 ba 43 45 34 3e 7f d3 6f bc 50 e5 d4 bc
       -0.0013673818 0.17604546 -0.014637827 -0.025988251
000040 a9 79 29 3f ac 8a 04 3d 59 3c 02 be c0 7c 2c 3d
       0.66201264 0.03235881 -0.12718333 0.04211116
000050 c5 16 ba 3e 1d 7d e8 bc ae eb ba 3d 82 40 a1 3d
       0.36345497 -0.028379971 0.091269836 0.07873632
000060 81 fc 36 3e 73 ad f8 3c 50 f1 29 3e 1e 25 e8 bc
       0.1786976 0.030356145 0.1659596 -0.028338011
000070 b0 27 37 bc fc 1c cb 3c 4c 7b 29 3b f5 62 41 be
       -0.011178896 0.024794094 0.0025860844 -0.18885405
