SimulatorWithONNX/data/upupup.onnx (onnx, 14889 bytes, 9 tensors)

fc1.bias f4 [32]
00000000: 0209 c8be fd1e 81be 83df 4dbf 69f3 e03e
00000010: f30e cfbe 4ed2 c7be 81bd 17bf d25a d7be
00000020: b99b d2bd c006 de3a 4453 47bf a3d3 abbe
00000030: 46b2 1fbe 08e2 993c 8fa7 22be e4d7 8fbe
00000040: 232d febe ab04 22be e143 ddbe 9f99 78bf
00000050: 92e2 b43d 741f 0ebf 8f97 0e3f 6e3b 8abf
00000060: fcb5 603b 9ad6 1bbf 0ecb 1ebf 48fc a1be
00000070: 605a 2bbf 8bf7 23bf c531 51be 27fa 10be
-0.39069372 -0.25218955 -0.80419177 0.43935707 -0.40441093 -0.39027637 -0.59273535 -0.42061478
-0.10283608 0.0016939268 -0.7786143 -0.33559904 -0.1559535 0.018784538 -0.15884231 -0.280944
-0.49643812 -0.15822093 -0.4321585 -0.9710941 0.08832277 -0.55516744 0.5570001 -1.0799387
0.0034288159 -0.6087433 -0.62028587 -0.31637788 -0.66934776 -0.64049596 -0.20429142 -0.14157926

fc1.weight f4 [32, 8]
00000000: 4a0f 6cbe 90e8 bbbe 1ae2 c63c ee59 00be
00000010: 0446 84be 3714 6dbe 96c5 053e c12b adbd
00000020: 3be5 50bd 6b00 9cbe b20c 71bc b2bb 72be
00000030: c62d aa3f e790 7c3e 940f 19bc 8396 14bf
00000040: 9a4d 103f 6269 95bf 42e8 913e 04ca 9dbf
00000050: ac8e a6bf a904 04bf fa71 84be c4fe 843f
00000060: 8cb3 6cbf 20e4 9b3e 24a6 82be c57d f4be
00000070: f1bb c33e a03e 033e 75e9 0abd 47f9 cf3f
00000080: cc36 213e 1b9d 183f a98c 9cbd 5a75 763f
00000090: 986e 74bf 7878 05c0 7223 7f3f ce21 8140
000000a0: 42b1 f13a fc8e 773e 1733 05be 9f0a 363e
000000b0: 6a20 dfbe c272 a6bd 063b 693e 3c6a 043e
000000c0: 82d8 7ebf a7e0 a13e f450 b3bd 9513 65bf
000000d0: bc10 543f deed 2e3d c3b1 d9be 1d64 f8be
000000e0: 1bb6 b03d 332f 1ebe 16d2 07be 72cc 943d
000000f0: 6729 803d d985 1d3d cde3 003e 3739 3a3e
00000100: b786 57bf 333d 8c3f b9d2 3fbe 7944 5d3f
00000110: 46b4 073f 9a63 a5bf c652 01be 323c 3a40
00000120: bed4 d2bd 6680 413f 7705 04bd ecfd 603e
00000130: 828c 66bf d7b9 843e b3f7 dfbf 691b 583d
00000140: f5f3 85be a4c6 f1be f2fc 023d ed43 2f3e
00000150: 6dc8 d93f 3f58 193f d375 443f 91f3 9bbf
00000160: 27d9 dd3d 8b1d d63f d7be babd 6767 f13e
00000170: ce53 a5bf 2213 22be ee41 9e3b 3749 d13e
00000180: 076a 27bf 6dd0 853e 567c fcbc f615 98bd
00000190: 4a79 0dc0 f22c a6bd 5d97 9c3f 3da5 b03d
000001a0: ee13 f6be f91b 40be 0526 97be 2b3c 1dbe
000001b0: 6f9e 30bf 9968 32be 2435 9fbf 7f38 2640
000001c0: 4a78 b83d ff27 0c3f a7e7 15be 8886 57bf
000001d0: 15b0 f03f ffea 46bf 36a3 303f 959e b9bf
000001e0: b6d2 83be f072 0bbf 20ee 6a3c 38cf c23d
000001f0: 59d8 66be aad6 c6be 389c 633e 9dbd 27bf
00000200: 124e ecbd 4b51 bdbd f49d c93c 5b39 903c
00000210: d06c 1740 98b5 5e3e c2a2 36bf 56c2 bdbf
00000220: 753b 9e3f dc3c 3cbf 22c9 49be de9d b53c
00000230: db80 983d 1b65 5fbf 0114 613f 7d65 4ebf
00000240: 6e01 33bd 7abf aabe a89b b3bb 6c27 06bd
00000250: 47eb f9be 3f85 15bf 8734 ffbf 8766 4dbf
00000260: c39c cabd a129 dfbd c043 1cba 944a d0be
00000270: a019 2b3f 24bb 7ebe fa63 b6bf e101 aabf
00000280: 199b f9bf 836f f63d f780 49bd 3ede 9fbf
00000290: 7ad7 21bf c086 b1be 2020 743f 7099 b7bf
000002a0: ff08 75be c193 fcbe ddf4 983d b82f ed3d
000002b0: 42d4 0940 1e71 cabe f6a4 15be 847d 85bf
000002c0: 0fbd 1b3d e21b 03c0 2e4c 023e a837 7ebe
000002d0: 7678 b6bf 8cc2 24bf f68e 073c ae39 ee3e
000002e0: d1c6 4fbf 7a66 a23d 7021 733e 43a7 2dbe
000002f0: 6885 f83f 23f0 1abe 9ec4 c0bf ac24 48bf
00000300: 6a37 ea3e d5b4 87be 7022 45bb 7085 51bd
00000310: 4211 933f 9e67 f7be 4a7d 463f 6b3d 6cbf
00000320: 8fdc 223f b1ee 15bc 5aeb 0e3d e528 573f
00000330: ba40 f0bf a3cd b6bf 1b3d 9e3f 570c 2740
00000340: e85c f83c 8b92 cebe 29d5 f73b 4442 ae3c
00000350: a0a5 1040 6dcb b83e 02b6 6f3f e83f cbbf
00000360: 9a5e c53e 30e8 653f 3abe fdbe 846d fbbc
00000370: 108c 953f 32d1 2fbe 733e 3e3e 5b4d 3140
00000380: b346 b5bf fae4 2e3d 1a01 2f3e 95b2 9f3f
00000390: ecaf 613f 6583 71be 369b 283f d838 8cbf
000003a0: 4ae8 823f 59c0 f03f ed49 b0be a571 253f
000003b0: e601 83bf 9520 b53d 0562 d4be 798b b73f
000003c0: 9c08 063e 321c 183e 9991 8dbe b556 ad3d
000003d0: b1bc 1dbe d27c 62be c652 e3bd cbbb 26bc
000003e0: a9d7 253e 3cf3 7cbe 3d43 36bd 54d0 293e
000003f0: 74a2 09bf cb15 1dbe 16fd 86bd 5af9 9cbe
-0.23052707 -0.3670087 0.024277736 -0.12534305 -0.25834668 -0.23152243 0.13063654 -0.08455611
-0.05099986 -0.3046907 -0.014712499 -0.23704413 1.3295219 0.24664651 -0.009342093 -0.5804216
0.5636841 -1.1672785 0.2849751 -1.2327275 -1.301229 -0.5156961 -0.25868207 1.0390248
-0.92461467 0.30447483 -0.2551738 -0.47752205 0.38229325 0.12816858 -0.03391405 1.6247948
0.1574356 0.59614724 -0.07644016 0.96272814 -0.9548125 -2.0854778 0.9966346 4.0353765
0.0018439668 0.24175638 -0.1300777 0.17777489 -0.43579417 -0.08127357 0.22776422 0.1293115
-0.99549115 0.3161671 -0.08755675 -0.89483005 0.82838035 0.042707317 -0.42518434 -0.4851388
0.08628484 -0.15447693 -0.13263735 0.07265557 0.06257897 0.038457725 0.12586899 0.18185888
-0.84189934 1.0956177 -0.18732728 0.86432606 0.5300945 -1.2921021 -0.12629232 2.909924
-0.102944836 0.75586545 -0.032231774 0.21971864 -0.9005815 0.25923035 -1.7497467 0.052760515
-0.26162687 -0.47221863 0.03197951 0.17115755 1.701429 0.5990028 0.76742285 -1.2183706
0.10832434 1.6727766 -0.09118431 0.47149202 -1.29162 -0.15827611 0.004829637 0.4087617
-0.6539616 0.2613558 -0.030821007 -0.07426064 -2.210528 -0.081140414 1.2233692 0.08625267
-0.4806208 -0.1876067 -0.29521194 -0.15354984 -0.6899175 -0.17422713 -1.2438092 2.5971982
0.09007318 0.5474853 -0.1463915 -0.84189653 1.8803736 -0.77702326 0.6899904 -1.450152
-0.25746697 -0.54472256 0.014339 0.0951218 -0.22543468 -0.3883565 0.22227561 -0.655237
-0.11538328 -0.09244021 0.02461145 0.017605474 2.3660164 0.2174896 -0.713421 -1.4824932
1.2361895 -0.73530364 -0.19705632 0.022170004 0.07446452 -0.8726365 0.8792115 -0.8062361
-0.043702535 -0.3334921 -0.005481202 -0.03275244 -0.48812315 -0.5840644 -1.9937905 -0.8023457
-0.09893181 -0.10896612 -0.0005961023 -0.406819 0.66835976 -0.24876076 -1.424926 -1.3281823
-1.9500457 0.12032988 -0.049195256 -1.2489698 -0.63219416 -0.3467312 0.9536152 -1.43437
-0.23929213 -0.49331477 0.07468579 0.11581367 2.1535802 -0.39539427 -0.14613709 -1.0428929
0.038022097 -2.0485768 0.12724373 -0.24825919 -1.4255512 -0.64359355 0.008273831 0.4652838
-0.81162745 0.07929702 0.23743224 -0.16958337 1.9415712 -0.15130667 -1.5060003 -0.78180957
0.45745403 -0.2650515 -0.003008034 -0.051152647 1.1489642 -0.4832124 0.77534926 -0.92281216
0.63617796 -0.009151147 0.034892417 0.84046775 -1.8769753 -1.4281505 1.2362398 2.6101282
0.030317739 -0.40346178 0.0075632525 0.021271832 2.260109 0.36092702 0.93637097 -1.5878878
0.38548738 0.89807415 -0.49559194 -0.03069187 1.1683369 -0.17169645 0.1857851 2.7703464
-1.4162201 0.042698838 0.17090264 1.2476374 0.8815906 -0.2358528 0.65861833 -1.0954847
1.0227139 1.88087 -0.344314 0.6462653 -1.0234954 0.08844105 -0.41481033 1.4339439
0.13089222 0.14854506 -0.27650145 0.08463804 -0.15404011 -0.22117928 -0.11099772 -0.010176609
0.16195549 -0.24702162 -0.044497717 0.16583377 -0.5376351 -0.15340345 -0.06591241 -0.3065899

fc2.bias f4 [32]
00000000: bfe7 ff3e da36 4ebf 0bb1 67bf 1c6a 85be
00000010: 4bf4 2fbe db9a 8cbf 6ae2 efbe 008f cfbd
00000020: dfac 6dbe 2e14 a53f 4b11 9bbe a128 0fbf
00000030: f2d4 773e 30bf 32bf 6601 713f 7653 6abf
00000040: 1ccf 8dbd 5f30 0dbe 6c68 85bf f990 503e
00000050: 09eb 70bf 4994 33be ebe8 71bf 8430 a7bf
00000060: 2165 783f 9336 c8bd 0473 bcbd 3318 dabe
00000070: ca3e 6dbe 6859 aebe ab3b 1fbf ad53 c7be
0.49981496 -0.80552447 -0.9050452 -0.26057518 -0.17183034 -1.0984758 -0.46852428 -0.10134697
-0.23210476 1.2896783 -0.3028663 -0.5592137 0.24202326 -0.6982298 0.9414276 -0.915336
-0.069242686 -0.13787983 -1.0422492 0.20367803 -0.94108635 -0.17537035 -0.9449603 -1.3061681
0.9702931 -0.09776034 -0.09201625 -0.42596588 -0.23168483 -0.34052587 -0.6220042 -0.38931027

fc2.weight f4 [32, 32]
00000000: 62fb 233d 56cd 86ba ed9f 97be a7ac 303f
00000010: 0042 5c3f 28d7 ae3d 30a8 f8be a80b 273d
00000020: 97e6 c23e 5dfd d73e fb9b 2ebf 41c9 6d3f
00000030: 0f41 82bc 26eb d43e 9576 7a3d eaf8 323e
00000040: f216 17be bf80 2fbf 033e 07bf 09df d9be
00000050: 46fb efbf e7e0 a2bf 90cf 10ba 7a09 9abf
00000060: f5a7 88bf 5f43 123f 18cb d9be 2f5e 823e
00000070: 3c48 01bf 72fa 163f 6a44 f43c 1232 06bd
00000080: 50c5 13be ac7f b5be 856f e9bc 9b8e 843d
00000090: a9cb 833f c549 1f3e 90cc c73e b6df c63d
000000a0: 9285 9d3e 6e5b 87be afea 13bf 189d 6f3c
000000b0: 6916 71be cc91 083f d692 1fbe ca88 4cbe
000000c0: 1f97 34be 5b5f 0d3f 5766 8bbe 594e a03e
000000d0: c953 563e 158f c63e d83e 0f3e 0b3c 5abd
000000e0: d0bd c9bd 1251 933e 206f cabe d7b6 c13e
000000f0: c01c f3b9 4419 1cbe 0700 92bd ed3b 0fbd
00000100: 01d5 c2bd 7e50 84bf ccfd 07bf bdc3 873e
00000110: d343 a8bc 8e33 69bd 7622 233e 1c2f 04be
00000120: dd82 4bbe 34f6 333e 92d1 b33e 4c43 21bf
00000130: 32d0 ce3f f6bf a03f af8e 0fbf 4850 3b3e
00000140: c764 963d 34c7 843f 432d 293f 3c62 883e
00000150: cb91 833f d072 77be 03b0 ba3e 9628 cf3d
00000160: fc7e a63d 4f14 493f 9c39 6d3e d832 313d
00000170: 8d9e c53e 05c1 823f 8e73 70bd 6cdb a83c
00000180: 543d 9a3d 179b f5bd ba8b 83be 6ccf 23be
00000190: b123 933d 6d79 2a3e 112c 5cbc bdc4 853d
000001a0: 4093 99bd 0fa6 6a3d 8f4b 083e 5879 83bd
000001b0: 5be2 8bbd 1c43 ae3d 6834 9cbc d13d 203d
000001c0: 1630 e9bd 9061 17be 349f a93d 5870 bb3b
000001d0: a4f0 9fbc a9ca a13d 0ff4 63be 3664 01be
000001e0: 3279 883a a0db a6bd 240c c9bc db7d fb3d
000001f0: 745e 6ebe c8fe 23be 7f48 4b3d 035b a1bc
00000200: a6d2 85bd 9e25 313c 16e7 883d cf4e c93d
00000210: 35b8 8c3e 35d6 4a3c 67c7 1e3f fe9f db3d
00000220: a347 603d 4038 77bd 7673 cebe 7294 d43e
00000230: 72f4 6bbe 4755 cd3e 1295 c6be 1842 d9bd
00000240: a654 d63e 59a8 d93d f609 323d c155 10be
00000250: 2984 b0bd af5c 5d3d c20c c8be c4b6 cdbe
00000260: c2f9 2dbf f126 c93e 7e03 ce3d 33e3 db3e
00000270: 292a 0fbe a692 b63e 66ff bd3c f8aa 78bc
00000280: c877 cabc dae2 1fbe 3b7d 0d3f 69a0 d13e
00000290: 50ad 743f 5fcc 253d 8d7b 023f 06e5 4cbe
000002a0: 8ba5 bc39 5e83 22bf 56f8 24be 1db6 8e3f
000002b0: 32b3 ccbe c95a 9e3f 1346 0f3f b103 c03d
000002c0: a5e1 5cbd 1a92 3dbe a41f 37bf 6776 143e
000002d0: 4e09 d5bf 5bea 013e e136 573f 77cc 86bf
000002e0: ff1f e0bd 16dd 163f 3895 82be cb4e cb3f
000002f0: 0473 dcbe 92d0 a73f 4267 93bd a423 ee3d
00000300: 2a97 debd 7592 233f 5a75 9e3d cf8a 3c3f
00000310: 23e9 e93f f3b4 adbd c64b 813f 2c00 cfbb
00000320: 636d ac3f 0abe 79bd ef95 f4bd f83c c43e
00000330: 42e5 8dbf 3751 273f 8f22 2abf 2366 05be
00000340: f684 8d3f 7e29 213f 5944 01c0 006a 33bf
00000350: 9a84 3bbc 101b 8ebd 20c2 473e eaf1 41be
00000360: 2ada 933e 71dc 6b3f 84a5 b4be e51f f63f
00000370: a419 21bc 1d2c 873f e02b acbc f8e4 a73c
00000380: 1514 373e 860f 2fbe b6ed 2abe cf09 15bd
00000390: 2b06 e8bd 949c c93d 606d b13b b511 863e
000003a0: a4ec 1ebc 04c4 0abe bc14 633d 64e3 07bd
000003b0: 27b4 25be 8dd2 0f3d 4f50 3bbe adf7 bc3d
000003c0: 7a71 7abd 6d94 2cbe 54b3 2cbc c46c 4ebc
000003d0: ae94 80bd 6c89 8fbd b2a8 20be 80bb bc3a
000003e0: 4080 9cbd 62f1 83bd 9eec 09bd 7836 bebd
000003f0: 5fb5 b5bd 123e 56bd 7a7b 443d 2940 9dbd
0.04003466 -0.0010284584 -0.296142 0.69013447 0.8603821 0.085371315 -0.48565817 0.0407826
0.3806655 0.42185488 -0.6820676 0.92885214 -0.015900163 0.41585654 0.061148245 0.17477766
-0.14754847 -0.68555826 -0.52829 -0.42552975 -1.8748558 -1.2724885 -0.0005524093 -1.2034142
-1.0676256 0.5713405 -0.4253776 0.2546248 -0.50500846 0.589759 0.029817779 -0.032762595
-0.14430737 -0.35448968 -0.02849556 0.06472512 1.0296527 0.15555485 0.39023256 0.09710638
0.3076597 -0.26436943 -0.57779974 0.014624856 -0.23543705 0.5334747 -0.15583357 -0.19974056
-0.17635773 0.55223626 -0.27226517 0.31309775 0.20930399 0.38781038 0.13988817 -0.053279918
-0.09850657 0.2877279 -0.39537907 0.37834808 -0.00046369992 -0.15244013 -0.071289115 -0.03496926
-0.095132835 -1.0337064 -0.5312164 0.26516524 -0.020540154 -0.056933932 0.15931115 -0.12908596
-0.19874139 0.17574388 0.35120827 -0.6299331 1.6157286 1.2558582 -0.5607709 0.18292344
0.073434405 1.0373292 0.6608469 0.26637447 1.0278867 -0.24164891 0.3646241 0.10115163
0.08129689 0.78546613 0.23166507 0.04326138 0.38597527 1.0215155 -0.05870395 0.020612441
0.07531229 -0.11992472 -0.2569254 -0.15997094 0.07184542 0.16647883 -0.013438241 0.065316655
-0.07498789 0.057287272 0.13310073 -0.06419629 -0.06830283 0.08508894 -0.019067958 0.039121453
-0.11386125 -0.14783311 0.08282319 0.0057201795 -0.019523926 0.078999825 -0.2226107 -0.12635884
0.0010412096 -0.08147359 -0.024541922 0.122798644 -0.23278219 -0.1601516 0.049629685 -0.019696718
-0.065343186 0.010812191 0.06684701 0.09829485 0.2748429 0.0123801725 0.62023014 0.107238755
0.054755818 -0.06035638 -0.40322465 0.41519505 -0.23042467 0.40104124 -0.38785607 -0.106083095
0.41861457 0.10627813 0.04346653 -0.14095213 -0.086189575 0.054043468 -0.39072233 -0.40178502
-0.67959225 0.39287522 0.1005926 0.42946777 -0.13980927 0.3565876 0.023193073 -0.015177481
-0.02471532 -0.15613881 0.5526921 0.40942696 0.95576954 0.040478107 0.50969774 -0.2000924
0.00035981493 -0.634817 -0.16110358 1.1149327 -0.39980465 1.2371455 0.559663 0.09375704
-0.05392613 -0.18512765 -0.71532655 0.14498292 -1.6643465 0.12687056 0.84068114 -1.0531148
-0.10943603 0.589311 -0.2550447 1.5883421 -0.430565 1.3110526 -0.07197429 0.11627892
-0.10868676 0.6389535 0.07737227 0.73649305 1.8274273 -0.08481779 1.0101249 -0.006317159
1.3470882 -0.06097225 -0.1194266 0.38327765 -1.1085589 0.653583 -0.6645898 -0.13027243
1.1056201 0.6295394 -2.0197966 -0.7008362 -0.011445189 -0.069387555 0.19507647 -0.18939939
0.28877383 0.9213324 -0.35282528 1.9228483 -0.009832773 1.0560337 -0.021017015 0.020494923
0.17878754 -0.17095765 -0.16692242 -0.036386307 -0.113293014 0.09844318 0.00541465 0.26185384
-0.009699974 -0.13551337 0.055439696 -0.03317584 -0.16182004 0.035112906 -0.18292354 0.09226928
-0.061143376 -0.16853495 -0.010540802 -0.012599174 -0.062783584 -0.07008633 -0.15689352 0.0014399141
-0.07641649 -0.064425245 -0.03367292 -0.09287733 -0.088724844 -0.05230529 0.04796932 -0.07678253

fc3.bias f4 [32]
00000000: 55be b7be 6106 75be 01e1 febe e90a 0dbe
00000010: 661e 28bf 94a7 a73d 599c 42be 8ca6 4cbf
00000020: fced 0b3f 14d8 1e3f c2ed 21bf d55f a0be
00000030: 7c5a 273e 547a 7fbe 7564 34bd aa3c adbe
00000040: e893 1bbd 6ac5 7dbf c035 afbe 3e32 ebbe
00000050: c01f 8dbd b63b fdbd 12ec a9be f43f 63be
00000060: 89a9 a1be e86f a2be 88e4 413b c28d 58bf
00000070: bb17 bcbc b43b 89be b953 7bbe 6687 083f
-0.358874 -0.23928215 -0.4978104 -0.13773693 -0.65671384 0.0818626 -0.19004954 -0.7994163
0.5466001 0.6204846 -0.63253415 -0.31323114 0.16343111 -0.24949008 -0.044041116 -0.33835346
-0.03798285 -0.99129355 -0.34220695 -0.4593677 -0.068908215 -0.123649046 -0.3318792 -0.22192365
-0.31574658 -0.31726003 0.0029585678 -0.84591305 -0.022960534 -0.26803362 -0.24543656 0.533316

fc3.weight f4 [32, 32]
00000000: 0607 48bf 5fde 443e 5900 0abe e543 513e
00000010: 1cc3 cbbd 6c23 00bf cb25 82bf c5cd 2f3e
00000020: 2a37 513d 0f88 95be fa48 c33c 58ed b5bd
00000030: e4e6 923d 4448 463f e5e1 ebbf 9336 863f
00000040: fe06 e53d 25c5 0e3f 1a3f 4f3e 67e1 dabf
00000050: bc51 ed3e 9b76 eebc deaa 31be 3fad 26bd
00000060: 7143 273f da60 a2bc 2e32 faba 1b43 d9be
00000070: a637 583d 937f 94bd eb83 66bf 0899 5e3f
00000080: a471 bbbf 8ed1 143d d116 2d3f 60d4 f6bb
00000090: b374 8b3e 0e0c 13be 27df ff3d 0c1b 15be
000000a0: 6b5e 9bbd dc81 c2bf fde3 0b3d d06a 833e
000000b0: 8463 73be 08e6 4e3f bdc6 a6bf e21f 023f
000000c0: d407 a0bd 9e41 0abe 76ed 85bd eac7 aabe
000000d0: b981 23be 6e95 a8bd 739f 14bd 0001 633e
000000e0: e5a2 2f3f e21f 3ebe a55e 06be eb94 d83e
000000f0: 19ea 30be 9af2 313d b6ed 1e3f 299e 053f
00000100: 4f3d 0bc0 2b6a 1cbc 2af7 4abf 1001 873e
00000110: 2ed7 40bb ff66 8dbe 5cb7 7f3f 7205 25bd
00000120: d97a 67bd 8bbf 3d3e f0b8 36be 0898 c9bd
00000130: 4fb4 0e3e b6d3 183f edc2 79bf 3fd9 8d3f
00000140: a99d 29bd dce4 56be 88ef debe ba1a dc3e
00000150: 35d6 80be ad7c 05be c733 e2be 17b1 653f
00000160: b7cf ba3e d030 d73c 00ab d7bb 07db 653d
00000170: 94ce d1be 2216 2c3d 57e9 303f fc8b 0b3f
00000180: 28ad cdbf 728f d8be ec44 1f3f de30 06be
00000190: 24df 8bbe ed4e 7cbf 2e3a e43e bc88 29bc
000001a0: 902a b7bb 20bf d0bf 6daa 613e 6c80 c33d
000001b0: 76ff 3e3d 9445 313f d6df 8dbf b848 343f
000001c0: 06ff ddbd 6446 25bf f8a7 0c3f 960c 03bf
000001d0: 26a2 ca3e 04eb ffbc ab8b 51bf d313 bebd
000001e0: 8c71 c43e a4a8 033e d6d7 bebb b55a 75be
000001f0: d868 2e3e 485b a63d 4ce8 923f 5fc0 383f
00000200: 0bb5 9dbf 807b 4cbe da38 33be 6444 b6bd
00000210: cf3c 8dbd e9af 99be c68b 173f f12b 3abe
00000220: bb48 1d3e db64 4fbe 6202 333f 8ebf 713d
00000230: f115 3b3f 53a7 543e 765e 05bf f176 ee3e
00000240: 9313 30be 5dce 5dbe b930 203e 7f35 b83d
00000250: a1b6 87be 041a 2f3c 05e5 60be 42e4 ce3e
00000260: 30ce 28be 0fd4 56bd 302c ac3d 30fe 923a
00000270: 814b acbe 0491 d5bc 33a2 b23e 512f 543f
00000280: d331 2bbe 21b7 383e fcf3 b33e 2731 adbd
00000290: 095a d13d 0f35 583e 3b11 c3be f094 75be
000002a0: 8e30 2abe 4af7 0cbe 0f83 bd3e 27b6 66bd
000002b0: 8305 cb3e e46b 5cbe e278 d0be 891d e3bd
000002c0: d000 dc3d 92ce c03e e584 08be 7e89 483d
000002d0: 131d 50be 8c3e 8f3d 539e b23e 2fe2 a73d
000002e0: 6c0a 703e c862 cc3d 0b49 73be 9dde 6dbe
000002f0: 9ee2 f23d 7a0a d0bd 7ffd 01bf 7e7b 023f
00000300: 86c3 38be 7d8a e53e 6aed e83e fd47 513e
00000310: 3323 a2be 6fd3 b1be cfd5 403e be09 44be
00000320: 9822 94bd c04f bdbf d55c 183e 82bb c23d
00000330: 78a6 58be 958b 783f 1179 42bf 8604 b63e
00000340: c03d 45bc f220 993d 2c05 043f af7a 48bf
00000350: 431b 963e bfbd 49bd d0a4 13be b49f ccbe
00000360: d21b d33e 4d36 853d b422 113e 93ae 873e
00000370: 489d e4ba 0262 c63d 653d 583f ca07 013f
00000380: 9ade 93bf 5097 96be b5bf 9dbe 18c6 87bd
00000390: 4459 4ebd 82e9 85bc 02ae 933e dc84 debd
000003a0: 9ee4 063e da9d d53d 8854 9d3c d01e 14be
000003b0: 1b91 52bd 5f77 053f 2e71 15bf bf5f f83e
000003c0: b86c 023e 86fb cfbe e86e 063d f0f8 823d
000003d0: 2f4e ddbe ac9c 433e 296e 89be 4694 843f
000003e0: 028d 1abd 8fe8 ab3c 08cc 08be ddff 123f
000003f0: 00aa 9c3e d452 d73d 95bb 683f 045c 893f
-0.78135717 0.19225453 -0.13476695 0.20436056 -0.099493235 -0.5005405 -1.0167783 0.17168339
0.051078 -0.29205367 0.023838509 -0.0888316 0.07172945 0.7745402 -1.8428313 1.0485405
0.11182974 0.5576957 0.20238915 -1.7100037 0.4635142 -0.02910929 -0.17350337 -0.040692564
0.6533728 -0.019821573 -0.0019088441 -0.4243401 0.052787445 -0.07250895 -0.9004504 0.8695226
-1.4644055 0.03633266 0.6761294 -0.0075326413 0.27237472 -0.14360067 0.12493735 -0.14561099
-0.07586368 -1.519588 0.034152973 0.2566743 -0.23768431 0.8081975 -1.30294 0.508299
-0.07813993 -0.13501593 -0.06539433 -0.33355647 -0.15967454 -0.082316265 -0.036284875 0.2216835
0.6860793 -0.1856685 -0.13122042 0.42301115 -0.17276801 0.043444254 0.6208147 0.5219446
-2.175617 -0.009546797 -0.7928339 0.26367998 -0.0029425132 -0.27617642 0.9988916 -0.040288396
-0.05651364 0.18530099 -0.17843986 -0.09843451 0.1393597 0.59698045 -0.9756306 1.1081923
-0.041410122 -0.2098574 -0.43542123 0.4298914 -0.25163427 -0.13035841 -0.44180128 0.8972334
0.364866 0.026268393 -0.006581664 0.056117084 -0.4097792 0.042013295 0.6910605 0.54510474
-1.6068468 -0.4229694 0.6221454 -0.13104579 -0.2731868 -0.9855793 0.44575638 -0.010347541
-0.0055897906 -1.6308327 0.22037669 0.09545979 0.046630345 0.6924679 -1.1083934 0.7042346
-0.108396575 -0.6456053 0.549438 -0.5119108 0.39576834 -0.031239994 -0.8185374 -0.09281125
0.3836788 0.128573 -0.0058240695 -0.23960383 0.17032182 0.08122879 1.1477141 0.72168535
-1.2320875 -0.19968987 -0.17502156 -0.08899763 -0.06896364 -0.3001702 0.5919765 -0.18180825
0.15359776 -0.20253317 0.6992551 0.05902057 0.73080355 0.20766954 -0.5209726 0.4657512
-0.17194967 -0.21660753 0.15643586 0.089945786 -0.26506522 0.010687355 -0.21962364 0.40408522
-0.16484904 -0.05244833 0.084068656 0.001121467 -0.33651355 -0.026070125 0.34889373 0.828847
-0.16718225 0.18038608 0.35147083 -0.08456641 0.10222251 0.2111399 -0.38099083 -0.23982596
-0.16620085 -0.13766208 0.37014052 -0.056326058 0.39652643 -0.21525532 -0.40717226 -0.11089618
0.107423425 0.376576 -0.13331945 0.048959248 -0.20323591 0.06994352 0.34886417 0.08197438
0.23441476 0.099797785 -0.23758332 -0.23229451 0.1185963 -0.10158248 -0.5077743 0.50969684
-0.18043336 0.4483222 0.45493633 0.20437618 -0.3166748 -0.34731624 0.18831562 -0.19144341
-0.07233161 -1.4789963 0.14879163 0.095084205 -0.21157253 0.97087985 -0.7596598 0.35550326
-0.012038648 0.07476987 0.5157039 -0.783122 0.29317674 -0.04925322 -0.1441834 -0.39965594
0.41232163 0.06504498 0.14173394 0.26500377 -0.0017441893 0.09686662 0.8446868 0.5040251
-1.1552308 -0.29412317 -0.30810323 -0.0662958 -0.0503781 -0.016346697 0.28843695 -0.10865185
0.13173148 0.104304984 0.019205347 -0.14464879 -0.051407915 0.5213527 -0.58375823 0.48510548
0.12736785 -0.40621585 0.032820612 0.06395137 -0.43223712 0.19102734 -0.26841858 1.035775
-0.03773213 0.020984916 -0.13359082 0.57421666 0.3059845 0.10513845 0.9091123 1.0731206

fc4.bias f4 [32]
00000000: 7db9 433f b6e1 3ebe 7c19 29bb 82b1 44be
00000010: 454c 043c eaf9 5ebe dd46 8fbe e8d3 24be
00000020: 9dc1 24be 0be5 1e3e 1785 1ebe 7795 84be
00000030: 0b05 11bd 3579 d1be acc8 76be f537 32be
00000040: f1ec 163e ee25 a5be 0c4a 6fbd b3a0 e5be
00000050: 09bd 863f a855 8cbe cff2 f1bd 5457 87be
00000060: 992f a73c 00a9 82be 3e3c f23e b7c0 8ebe
00000070: ccc6 5ebe def3 75be f168 e7be 6e36 873d
0.7645491 -0.1864079 -0.0025802543 -0.19208339 0.008074825 -0.21775022 -0.27983752 -0.16096461
-0.16089483 0.1551706 -0.15480457 -0.25895283 -0.0354052 -0.40912786 -0.24099988 -0.17404158
0.14738823 -0.322555 -0.058420226 -0.44849166 1.0526439 -0.274091 -0.1181389 -0.26433814
0.020408439 -0.25519562 0.47311586 -0.27881405 -0.21755522 -0.24018809 -0.4519725 0.066021785

fc4.weight f4 [32, 32]
00000000: 30e9 59bf 9692 28be 667c 133d 71a9 c4be
00000010: 30f0 013e b861 8dbd 0f66 0bbf a980 503e
00000020: 6dc1 8f3e 105e a83e 5249 77bf f8f5 02be
00000030: d337 a3bd d370 ba3d 8e55 43bd ac2f b93d
00000040: 9225 293f 6958 973e 6846 803c 3d32 343d
00000050: ba8e 133f a832 de3d 60f4 c7bc b66f fcbd
00000060: cf3e 00bf 6608 1abe ff70 bbbe 0634 803e
00000070: 4971 463d 4576 213d 4379 2abe aca0 173f
00000080: ab60 3abe 190b 24be ea45 bebc fc07 7fbd
00000090: be6f 83bd f4e2 863d 70ac 983d 2010 1c3c
000000a0: d83e 22bc f297 8ebc 0ace f7bd 070c 62bc
000000b0: 627c e2bc 0828 6b3d d6fb 813d 0b7e 47bd
000000c0: a718 1fbd aa60 a63c f4c8 49be bcca ccbd
000000d0: 6ab5 36be c1de 43bd 75de 5ebd da23 b93d
000000e0: 7a3e 023d 6e49 b73d 9723 08bd b44b 2fbe
000000f0: 3601 0fbe 42a0 bbbc 5a82 27be ef59 69bd
00000100: 8ebf d6bc c522 46bf e12c 19bc 3a7c 63bf
00000110: a47b 183d c072 413e b608 3dbf 2d1e 853e
00000120: be1a 3f3e 8b8d ae3e 0f52 4cbf ad94 b73d
00000130: e2b4 9abd 0363 30be d957 fcbe d675 053f
00000140: bcea eb3e 76cc 843e e0c5 063c ccdb 9e3d
00000150: 933a 623e bfd5 bebd 1e83 c83d 2950 243e
00000160: 5663 39be de90 4e3d 3ffb b0bf 3f12 dd3c
00000170: c461 863e 64f9 823d 20af efbb 7485 a83e
00000180: b186 cd3d c942 aabd a760 47bd f2a9 3dbe
00000190: 6c0e 683c b934 333e 9880 6abd 5e1c ac3d
000001a0: f0fa ed3b 9f89 abbd b1e1 0ebe 8324 ad3d
000001b0: 6471 e73c 0323 8cbe 13be 14be 1975 9e3c
000001c0: 02f3 4ebe 7202 c9bd b050 083d 2097 88bd
000001d0: 8055 01be af09 c3bd e151 063e f859 76bc
000001e0: a215 dabd 44b3 bbbc 6d70 a43d f48e 24bc
000001f0: 2ff0 a5bc 94f9 4fbe 93ac afbd dc0e c33c
00000200: 276f 0e3e b549 bc3d 4754 a7be 9e50 c4be
00000210: ab05 b3bc 77f4 a0bc 822c c9be 6b31 a13e
00000220: 9bfc 39be d763 a3bc d64e b23d cd81 5a3d
00000230: 2142 04be 7b3a b4be 1b3f 84be dcd8 80be
00000240: 8d6f 7b3e 1ee8 b63e dddd 893d 9a7e 3dbd
00000250: 38d5 5a3e 5a92 a03d 8e7a ef3c 6187 35be
00000260: 5d05 7c3e 307d babd 2286 81be 20ee 3b3b
00000270: 55d2 02be ca21 bcbd 22c7 27be f261 743e
00000280: 192a 78be 41ab 95bd 83b7 de3d a987 efbe
00000290: 862d d1bc fd07 913e db5b d2be 8a43 b73e
000002a0: 15f1 24bd dc66 e53c 4a89 01bf 714f f8bd
000002b0: 516b 78be 66a4 da3e 190f 0d3d 7a06 d6bd
000002c0: c736 8d3e fdf1 c33e e8ab 04bd 8665 a8be
000002d0: 8c2f 9b3e 8d36 023e 1ed7 17bd e706 18be
000002e0: 688d 083c c239 c93d 676a 48be 7643 01be
000002f0: 51c1 3fbd c68b 99be efed 183e 7637 52bc
00000300: f6ee 38be 7d08 37bd 24de 38bc f9c2 f1bd
00000310: e806 fb3d fdf5 13be baf0 7fbe 565c c7bd
00000320: e39e 70be 2fea 1bbe cfed f8bd c4b6 963d
00000330: c009 d8bb b858 103d 55fc 073d 7d13 e4bd
00000340: b0d1 63be 49db 2bbe 4e99 dcbd 98f8 53bd
00000350: e68e b3bc a820 113d 4044 a13b bf72 37be
00000360: 57ed 1dbe 1d9b 713d 016e b0bd d12e 7abd
00000370: 4cbc ff3d c9f2 1c3d bac5 efbc 9a94 d03d
00000380: dd20 09be c5ca c5bc 4823 b43c 9c6b 44be
00000390: a702 50be 4f4b 2ebe d001 71be f841 35bd
000003a0: 364d 323d a79a 79bd 07e0 6f3d 0f88 023e
000003b0: f517 68be fea8 2ebe 9e18 22be f61d 93bd
000003c0: 1441 a3bd d5ed 123e 644f 6e3c 5d51 e0bd
000003d0: e72f 0ebe ed4e 0f3e 35b9 50bd 6b3e 363d
000003e0: f638 d4bc c423 7a3c 0a94 a73d f2e2 4abc
000003f0: c9fa 51be 0006 0dba f6f7 983d 6cf3 a6bc
-0.8512144 -0.16462168 0.036007307 -0.38410524 0.1268928 -0.06903404 -0.54452604 0.2036158
0.2807726 0.32884264 -0.9659625 -0.12789142 -0.07969632 0.09103551 -0.047689013 0.09042296
0.6607295 0.2955964 0.015658572 0.043993223 0.5763966 0.10849506 -0.02440852 -0.12325995
-0.5009584 -0.15042266 -0.36609647 0.2503969 0.04844788 0.03941943 -0.1664782 0.5922954
-0.18200938 -0.16019858 -0.023226697 -0.062263474 -0.064177975 0.065862566 0.07454765 0.009525329
-0.009902678 -0.017406438 -0.12099846 -0.013796813 -0.027647201 0.057411224 0.06346862 -0.04870419
-0.03884187 0.020309765 -0.19705564 -0.09999606 -0.17842641 -0.047819857 -0.05441137 0.09040041
0.031797864 0.089495525 -0.033237066 -0.17118722 -0.13965306 -0.022903565 -0.16358319 -0.056970533
-0.026214387 -0.77396804 -0.009349079 -0.8886143 0.037227288 0.1889143 -0.73841417 0.25999585
0.18662545 0.34092364 -0.7981271 0.089639045 -0.07554032 -0.1722527 -0.49285772 0.5213293
0.46077526 0.2593724 0.008225888 0.07756767 0.22092657 -0.093181126 0.097906336 0.16046204
-0.181043 0.050431125 -1.3826674 0.02698624 0.26246464 0.06395224 -0.0073145777 0.32914317
0.10035456 -0.083135195 -0.04867616 -0.1852186 0.014163595 0.17500581 -0.057251543 0.08403848
0.00726258 -0.083758585 -0.13953282 0.0845423 0.028252311 -0.27370462 -0.14525633 0.019342946
-0.20209888 -0.098149195 0.033280075 -0.0666945 -0.12630272 -0.095233314 0.13117172 -0.015036099
-0.106486574 -0.022912629 0.08029256 -0.010043848 -0.02025613 -0.2031005 -0.08577838 0.023810796
0.13909589 0.09193746 -0.32681486 -0.38342756 -0.021853289 -0.01964782 -0.3929177 0.31483015
-0.18162768 -0.019945068 0.08706443 0.053346444 -0.12915851 -0.35200867 -0.25829396 -0.2516545
0.24554272 0.35723966 0.0673177 -0.046263315 0.21370399 0.07840414 0.029233243 -0.17727424
0.24611421 -0.09105909 -0.25297648 0.002867587 -0.12775548 -0.09186132 -0.16384557 0.23865488
-0.24234809 -0.07308055 0.10874846 -0.46783188 -0.025534403 0.28326407 -0.41085705 0.35793716
-0.040268976 0.028003149 -0.5060011 -0.12124527 -0.24259688 0.4270355 0.034438226 -0.10450454
0.27580854 0.3827056 -0.032390505 -0.32889956 0.30309713 0.12716122 -0.037070386 -0.14846383
0.008334495 0.098254696 -0.1957184 -0.1262339 -0.04681522 -0.2998945 0.14934514 -0.012830606
-0.18059906 -0.04468583 -0.011283431 -0.11804766 0.12257177 -0.14449306 -0.24994174 -0.097344086
-0.2349811 -0.15226053 -0.121547334 0.073590785 -0.006592959 0.03524086 0.033199627 -0.111365296
-0.22247958 -0.1678287 -0.10771428 -0.05175075 -0.021918725 0.035431534 0.004921466 -0.17914866
-0.15422569 0.05898582 -0.086147316 -0.061079804 0.12487087 0.038317475 -0.029269088 0.101845935
-0.13391443 -0.02414454 0.02198948 -0.19181675 -0.20313512 -0.17020915 -0.23535848 -0.044252366
0.043530665 -0.060938504 0.05856326 0.12747215 -0.22665389 -0.17056653 -0.15829703 -0.07183449
-0.07971397 0.14348538 0.014545295 -0.10953019 -0.13885461 0.13994952 -0.050957877 0.04449312
-0.025906067 0.015267316 0.08182533 -0.01238321 -0.20505823 -0.0005379617 0.0746917 -0.020379744

fc5.weight f4 [1, 32]
00000000: cbae 1d3e 3809 ecbc c78b a73e c02a a73a
00000010: 7583 ca3d cb1b fe3d 90f8 fdbb a2b2 3abd
00000020: 4ee2 f4bb 002d 663c 7482 58bd c4ac 96bc
00000030: 1bd6 d93e dc67 5ebc d84a 19bd 1c90 dc3b
00000040: f5fd 25be c4a2 593d 680c a13e 7712 a63c
00000050: ed1b 103f 943a a63b 76b2 0abd 0973 1c3d
00000060: d62e 013c e851 303d 0478 09be f846 73bc
00000070: 5046 243d 56fd 833d c8cc ae3c d5ca 0b3f
0.1539871 -0.02881299 0.3272383 0.0012753829 0.09888355 0.12407645 -0.007750578 -0.045580514
-0.0074732667 0.014048815 -0.052858785 -0.018392928 0.42546162 -0.013574567 -0.037424892 0.0067310464
-0.16210158 0.05313374 0.31454778 0.020272477 0.5629261 0.005072901 -0.0338616 0.038195644
0.007884702 0.043046862 -0.13424689 -0.014848463 0.040106118 0.06444804 0.021337882 0.5460637
