SimulatorWithONNX/upupup.onnx (onnx, 14889 bytes, 9 tensors)

fc1.bias f4 [32]
000000 d0 d3 90 bf 4e 03 89 3f 92 4d 2c bf 3b 71 91 bf
       -1.131464 1.0704134 -0.6730586 -1.136268
000010 79 3e 4b bf ec 82 41 bf 38 b4 78 bb ed 6b 84 be
       -0.793922 -0.75590396 -0.0037949216 -0.2586359
000020 49 4b 44 3f 1e fb 13 bf 56 3c 7c bf d7 74 44 bf
       0.76677376 -0.5780505 -0.98529565 -0.76740783
000030 0a fb 26 bf dc 27 af be 8f 6d e6 3d 59 05 0e 3f
       -0.65226805 -0.34210098 0.112513654 0.5547691
000040 f6 d7 5c be 54 2e a0 be 2e 1f e1 bc 2c b1 07 3d
       -0.21566758 -0.31285346 -0.027480688 0.03312795
000050 bd 7b 55 bd 62 a4 6f bf 0b 9b cc bd 77 e2 cb be
       -0.05211996 -0.93610203 -0.099905096 -0.39821216
000060 33 16 d9 3e c6 47 a4 be 45 9c 6f be 27 c5 15 bf
       0.4239975 -0.3208601 -0.23399456 -0.58503956
000070 81 87 bb be 97 ea 52 bf de 4f 2f bf 5e 9a 4c be
       -0.3662682 -0.82389206 -0.6848124 -0.19980761

fc1.weight f4 [32, 8]
000000 ff 2d c9 3e 1c ec ad bf ef 57 a3 3e 4e a8 7a bf
       0.39292905 -1.358768 0.31903026 -0.9791306
000010 35 f5 d0 bf 5d 46 7b bf 27 ec 06 be 46 cf 92 3f
       -1.6324831 -0.9815424 -0.13176022 1.1469505
000020 a9 40 0f bf fd ac 32 3f 57 88 9e bd 1d 7f 8b be
       -0.5595804 0.6979521 -0.077408485 -0.27245417
000030 cb f5 ea bf e3 e0 9b 3d 2b 17 fe 3d e8 07 ec 3f
       -1.835626 0.07611253 0.12406763 1.8439913
000040 89 35 7d 3e d6 12 51 3f 75 fb e8 bd 4e d6 78 3e
       0.24727453 0.81669366 -0.113760866 0.24300501
000050 4b 98 c3 bf 4e 79 ca be e1 30 24 3e 9d 07 ec 3f
       -1.5280851 -0.39545673 0.16034271 1.8439823
000060 db a5 7d be 4e c8 b8 3d 32 b9 1d bc cd 0c 0d 3d
       -0.247703 0.0902258 -0.009626674 0.034436036
000070 c0 dd 6a be df e3 f0 bd 83 00 0d 40 ac d3 22 bf
       -0.22936153 -0.11762213 2.2031562 -0.63604236
000080 50 08 25 bf 81 ae 79 be 46 92 44 3e 3c eb 38 3f
       -0.6446581 -0.24382974 0.19196424 0.7223394
000090 f0 ef 20 3f 26 0c aa bf 34 02 80 be 3d 35 33 bf
       0.62866116 -1.3284957 -0.2500168 -0.7000311
0000a0 ae 75 c7 be 4f a0 b5 3e 94 e1 8f 3d 53 50 96 3e
       -0.3895697 0.35473868 0.070254475 0.29358158
0000b0 e5 57 77 3f 53 43 b8 bd 9e 7b 53 3d 3b ab 3a bf
       0.9661849 -0.08997216 0.051631562 -0.72917527
0000c0 1b b8 71 3e c6 8e 92 bf cc 5f 0b bf 44 db 9a 3f
       0.23605387 -1.1449821 -0.5444305 1.2098165
0000d0 1c 99 7a 3f ee f6 a2 3c 90 e1 e9 3e 8c f5 57 bf
       0.97889876 0.019893136 0.45679903 -0.8435905
0000e0 c2 15 5b bf 90 fb 6f 3c 4e 48 b0 ba 64 0b 2e 3e
       -0.85580075 0.0146473795 -0.0013449283 0.16996533
0000f0 f2 d0 89 3f f1 9b 36 be cd a5 1b 3f b5 bc 78 bf
       1.076689 -0.17832924 0.60799867 -0.97162944
000100 90 f5 33 be 6a f8 a0 bf 1a 28 d0 3d 47 31 1a 3e
       -0.17574143 -1.257581 0.10163899 0.1505786
000110 5e e2 e0 bf 4c 3a 27 be f1 b1 7d 3f f8 2e 02 40
       -1.7569082 -0.16330832 0.9909964 2.0341167
000120 1e 37 11 bd 82 d8 27 3e db 5d 85 bd 91 cc 09 be
       -0.035452954 0.16391185 -0.06512042 -0.13456942
000130 6e 3c 22 bf 1b 31 c5 be 60 fa 00 c0 63 82 31 bf
       -0.6337346 -0.38514027 -2.0152817 -0.6933958
000140 95 ee 2b 3f b0 56 1a 3d bb 8c 84 bd d2 23 3b be
       0.6716092 0.037680328 -0.06472155 -0.18275383
000150 17 bc 77 3e 67 a7 e0 3e 91 02 9f 3f a8 36 83 3f
       0.24192844 0.43877718 1.2422658 1.0251055
000160 03 01 10 bf f3 87 9f bd ae de 1e bd e0 c0 5e 3b
       -0.56251544 -0.07789602 -0.038786583 0.0033989474
000170 b2 02 b9 3f ae b0 5a 3f d0 36 fa be 5d b5 88 bf
       1.4453948 0.8542584 -0.48869944 -1.0680348
000180 10 e4 66 bf 04 28 ad 3d 89 60 b7 3e 9e e8 7b be
       -0.90191746 0.08454898 0.35815838 -0.24600455
000190 37 22 06 40 c2 6d f7 be e6 38 83 bf f9 20 f8 be
       2.0958383 -0.48325926 -1.0251739 -0.48462656
0001a0 b2 df 02 3f 8d b7 b8 3f 93 55 85 bd da a4 04 3f
       0.5112258 1.4431015 -0.065104626 0.51814044
0001b0 f1 0b c6 bf 24 f0 53 3e 05 1f ea be dc 6f ca bd
       -1.5472394 0.20697075 -0.4572679 -0.09884617
0001c0 4c 71 94 bc 2a a1 13 3f b8 b7 c2 be cf d7 93 be
       -0.01812043 0.5766779 -0.3803079 -0.28875586
0001d0 d1 56 59 3f 1f 5d 84 be 00 51 63 b8 ba 26 33 bf
       0.84898096 -0.25852296 -5.4196455e-05 -0.6998097
0001e0 a0 cc 2f bf 2f 2b 85 bf e0 86 2e bc 5a 2c 93 3e
       -0.6867161 -1.0403804 -0.010652274 0.28744775
0001f0 5c e1 7a bf cd 64 8a be 67 f6 bf 3f 5a 4b 78 40
       -0.9800012 -0.2703003 1.4997071 3.879599
000200 f2 49 d3 3e da 1b a7 3f a8 01 a3 3c da 69 80 3e
       0.41267353 1.3055375 0.01989825 0.25080758
000210 7c 10 0c c0 a0 5e ce be c7 1a 0b 3f 96 c6 cd be
       -2.1885061 -0.40306568 0.54337734 -0.40190572
000220 e1 14 16 be a1 d6 7b 3f d3 35 3c be 3b e7 b8 be
       -0.14656402 0.9837437 -0.18379907 -0.36113915
000230 b2 ba 84 3f dc 19 a6 be 68 7d 9a be 5b 46 aa be
       1.0369475 -0.32441604 -0.30173802 -0.33256802
000240 4e 99 ad 3e b2 37 1c 40 27 8e 2a bf ae de d4 3e
       0.33906025 2.4408994 -0.6662316 0.4157614
000250 e1 b9 51 bf e6 41 21 3f 56 25 9d bf 56 bd 01 40
       -0.81924254 0.6299118 -1.2277019 2.0271811
000260 4a f4 4e 3f c5 10 26 bf ca b7 02 bf 38 b5 1f bd
       0.80841506 -0.6486934 -0.5106169 -0.038991183
000270 e1 ca a2 3f 64 25 44 bf 8f 44 eb 3e a7 99 05 bf
       1.2718164 -0.76619554 0.45950744 -0.5218758
000280 39 02 69 be 3c be 9e be a5 d7 3f bd 10 df b2 3d
       -0.22754754 -0.31004512 -0.046836514 0.08733952
000290 f1 58 b8 be 0a b1 b5 be 5c 95 16 bd a2 7f a5 3b
       -0.36005357 -0.35486633 -0.036763534 0.0050506154
0002a0 5f e8 5c bd 56 9e a5 3e ce c5 15 be b6 0b 38 be
       -0.053932544 0.32347363 -0.14626238 -0.17973217
0002b0 8f 66 90 3f 67 02 34 3f 2e f8 34 3e db 75 ac 3e
       1.1281298 0.70316166 0.17672798 0.33683667
0002c0 8a 4e 4c 3e 1b df 20 3f c0 90 af be a8 8c 00 3f
       0.19951835 0.6284043 -0.34290123 0.50214624
0002d0 e8 91 84 3f 46 9b 98 bf ad 92 87 3e f9 0d 6b 40
       1.0357027 -1.1922386 0.26479092 3.6727278
0002e0 e6 06 f2 3e 02 49 a7 3f ff a6 87 be 78 fe 0a 3f
       0.47270888 1.3069155 -0.26494595 0.5429454
0002f0 ce 7f ae be b1 4e 47 bf ce 6f 70 be b6 5f 06 40
       -0.34081882 -0.7785445 -0.2348015 2.0995917
000300 07 a2 c8 3e 58 2c 08 3f 11 8f dc be ab 15 cb 3e
       0.39186117 0.53192663 -0.430779 0.3966497
000310 73 a9 9e be 6e 37 86 bf b9 52 20 3f 78 0d cc 3f
       -0.30988654 -1.0485666 0.62626225 1.594161
000320 20 4f 64 be 40 76 48 3e ac d3 b8 bd 03 ee f3 3a
       -0.22295809 0.19576359 -0.09024748 0.0018610362
000330 60 b2 ab 3c 18 fe 09 be 70 fc 3d 3e c5 19 b1 be
       0.02095908 -0.13475835 0.18553329 -0.34589973
000340 45 f0 71 bf a9 32 34 3f 37 17 15 be 0f 7a 96 bf
       -0.9450725 0.703898 -0.14559637 -1.1755999
000350 2c 55 f4 3e 12 99 b9 be 00 0c 28 3a 23 a5 97 bf
       0.4772123 -0.36249596 0.00064104795 -1.1847271
000360 67 f7 e1 3c 7f 50 0a be 56 a2 24 3c 86 4e 21 be
       0.027583791 -0.1350727 0.0100484695 -0.1575261
000370 36 28 1d 40 f8 5b b6 be 6a ac 42 3e 8b 0e 85 bf
       2.4555793 -0.35617042 0.19011083 -1.0395063
000380 0d f6 38 3f 61 68 c2 3e b3 3f 2c bc 84 ea 3e 3f
       0.72250444 0.3797026 -0.010513234 0.7457659
000390 44 88 07 c0 53 ad 96 bf e2 39 8e 3f 6b e5 d2 3f
       -2.117692 -1.1771644 1.1111414 1.6476263
0003a0 e4 e3 80 3e c8 07 cb 3f 24 71 28 be 1e 10 7b 3f
       0.25173867 1.586175 -0.1644941 0.9807147
0003b0 01 61 a6 bf f3 7e 05 3f 57 65 1c bf 0f 50 38 3f
       -1.2998353 0.52146834 -0.6109213 0.7199716
0003c0 15 49 60 bd ac b2 98 be 13 e6 b0 3d bc f6 7e bd
       -0.054757196 -0.29823816 0.08637633 -0.062247023
0003d0 45 ab 0d 40 e8 b7 06 3f fb cc 33 3f f0 e8 4c bf
       2.2135785 0.5262437 0.7023465 -0.80042934
0003e0 80 e6 1f be 2e c8 65 be 80 04 2e be 68 d4 8f bc
       -0.15615273 -0.22439644 -0.16993904 -0.017557338
0003f0 88 7d e3 bd 2c 65 13 3e e8 78 01 3d 26 25 1f 3d
       -0.111079276 0.14394063 0.031609446 0.038853787

fc2.bias f4 [32]
000000 65 bd 6d bf da 0a 9f 3c 76 9d 35 3f 9f 5e 92 be
       -0.9286712 0.019414354 0.7094339 -0.28587815
000010 a6 19 88 bf eb 5e 22 be 9d 83 6b be 69 4f 79 bf
       -1.0632827 -0.15856521 -0.22999425 -0.97386795
000020 fd de 81 3e ba 54 68 bd 96 6f ac bf a1 e4 0c c0
       0.2536544 -0.056721427 -1.3471553 -2.2014544
000030 85 ff 94 be 42 92 58 bf e1 26 4c bd 5d 37 33 3f
       -0.29101196 -0.8459817 -0.049841765 0.7000635
000040 72 1c e4 3d 13 9a 96 be 29 a5 6c be 77 a2 5a bd
       0.11138238 -0.29414424 -0.23109879 -0.053377595
000050 b1 4e 1a bf 7d f6 4f bf 54 bf a5 be 94 c9 47 bf
       -0.60276324 -0.81235486 -0.32372534 -0.7804196
000060 3f da 4c be d3 ca 04 bf 75 e6 36 bf dc e4 cc be
       -0.2000513 -0.51871985 -0.714454 -0.40018356
000070 2b 53 a6 bd f3 88 1d bf 97 92 d7 bf 16 a0 85 3d
       -0.08121332 -0.6153709 -1.6841611 0.065246746

fc2.weight f4 [32, 32]
000000 f6 25 9b be 47 23 2f be 2c 0f fd 3d c1 10 10 40
       -0.303024 -0.17103301 0.123564094 2.2510226
000010 81 29 62 bc 64 cb 20 bf 44 6b 90 be c2 be 54 3e
       -0.013803841 -0.6281035 -0.28206837 0.20775893
000020 5a 11 15 3e 48 c0 bc 3f 5c a9 50 3f 56 f7 74 3f
       0.145574 1.474618 0.8150842 0.95689905
000030 cf 4e 6d 3e 08 1f 07 be 74 bb 9a 3d 23 0d b7 3d
       0.23174594 -0.13195431 0.07555285 0.089380525
000040 70 0e 38 3e 3f 87 a4 3e 19 01 80 bd 95 6c d3 bb
       0.17974257 0.32134435 -0.06250209 -0.006452153
000050 2b 2e 8e 3d f9 36 41 bf 10 85 02 3f 1a 8b 45 bf
       0.069423996 -0.75474507 0.5098429 -0.7716538
000060 1e f9 db be a3 4e 23 be ae 14 7e be 9a e9 d8 3c
       -0.429635 -0.15947966 -0.24812576 0.026478577
000070 e0 ae 22 3d 7c 20 08 3f 43 01 00 3f a8 e4 0e 3e
       0.039717555 0.5317457 0.50001925 0.13954413
000080 67 af 3b bf 6c 8c b7 be 1a e2 3d 3d bb d7 c3 bf
       -0.7331452 -0.3584932 0.046358205 -1.5300211
000090 f9 99 f2 3e 70 48 32 3e fd ba c1 be c6 e7 6d 3e
       0.47383097 0.17410445 -0.37837973 0.23232946
0000a0 90 24 98 3b 3c ed 69 bf 60 a9 99 3c f1 ba b7 3e
       0.0046430305 -0.91377616 0.018757522 0.35884812
0000b0 95 42 a0 3e c3 1e d5 be 7b dd 95 3f 26 30 15 3f
       0.31300798 -0.41625032 1.1708215 0.58276594
0000c0 80 fb 1e 3e ac 77 a3 3e cc c4 f4 be db 2b 8f 3f
       0.15525627 0.3192724 -0.47806394 1.1185259
0000d0 04 fb fb 3c a7 26 f5 3d 7f 3e bc 3f 3d 25 a2 3e
       0.030759342 0.11970263 1.4706572 0.31669036
0000e0 c3 57 2e 3f e3 c6 ed bc 13 43 1b 3f 21 64 f1 3e
       0.68102664 -0.0290255 0.6064922 0.47146705
0000f0 3b 9d 0c bf c6 11 cb be 1b 1b 85 3f d8 fa a5 bd
       -0.54927415 -0.39661998 1.0398897 -0.08104485
000100 59 5a 7e bd 4c 95 e9 3e e3 5a 9f 3e a0 5e fb bf
       -0.06209788 0.45621717 0.3112403 -1.9638252
000110 b9 fa 1a 3e 43 4e 81 be 12 e3 2c bf 73 ad 18 bf
       0.15134706 -0.2525502 -0.6753398 -0.5963966
000120 f6 0c 69 3e ae 59 ef bf 50 79 75 be e3 f0 5c be
       0.2275885 -1.8699243 -0.23972058 -0.21576266
000130 32 d5 09 3e 0d 54 64 3e e1 11 8c 3f 9d 09 09 3f
       0.13460234 0.22297688 1.0942956 0.53530294
000140 7b 3f 4b 3f a0 a3 99 bc c2 c9 0b 3f da fd b8 be
       0.7939374 -0.01875478 0.54604733 -0.36131173
000150 65 a9 c8 bd f1 ea 8a 3e 09 f6 3d 3f ba 43 32 3f
       -0.097979344 0.2713237 0.74203545 0.6963459
000160 5b 88 3c 3f ef df d0 bd 08 8f 4a 3e 5b 8a 04 c0
       0.7364556 -0.10198962 0.19781125 -2.0709445
000170 21 fd 00 3e 69 b0 da 3e a2 8c f3 bf 16 91 d5 bd
       0.12596561 0.42712715 -1.9027293 -0.104280636
000180 eb 21 0e 3e 6a f7 a1 3c 40 91 65 3f 94 22 1d bf
       0.13880126 0.019771297 0.8967476 -0.6138089
000190 57 9c 19 be 31 7c ea bb 01 0e 41 3d 60 ca 7a bf
       -0.15001045 -0.007155918 0.047132496 -0.9796505
0001a0 20 13 b6 be 23 4a 5c 3e f5 f8 cd 3f 30 b4 3a 3f
       -0.35561466 0.21512656 1.6091601 0.72931194
0001b0 ad c1 20 bf 1c 98 8e 3f 09 c9 d3 3e 96 3b 9c bf
       -0.62795526 1.114017 0.41364315 -1.2205684
0001c0 e0 ed a9 3f 19 81 77 3f 64 e3 03 40 e3 f9 74 bc
       1.3275719 0.9668136 2.0607538 -0.014952156
0001d0 4c 18 83 bc e9 83 92 3e 28 dc 1d 3f c6 eb bb 3f
       -0.016002797 0.28616264 0.61664057 1.4681327
0001e0 fd a9 36 bf 98 ba 02 be 63 52 59 bf fe 76 2f bd
       -0.7135313 -0.12766492 -0.8489134 -0.04283809
0001f0 09 4f 9a 3f 6d 44 a6 3f 03 d7 24 bf 03 7f b5 bd
       1.205537 1.2989632 -0.6439058 -0.08862116
000200 e6 cf 42 3e d4 85 85 3d 16 48 e2 3e a8 f7 6e bf
       0.1902462 0.06519666 0.44195622 -0.93346643
000210 17 b8 9b 3f 5c d9 a8 3e ac 67 d6 3d 19 ed 95 3e
       1.2165555 0.32978332 0.104689926 0.29282454
000220 2f b4 6b 3e e8 8a c3 3f 87 15 35 3e 2f 3c 8f 3f
       0.23017953 1.5276766 0.17683993 1.1190242
000230 09 25 18 bf b3 8f 7d bf ad ef bb bd d2 59 78 3f
       -0.5943151 -0.9904739 -0.09176574 0.97012055
000240 89 86 48 be b9 f7 a4 3f bc b8 77 bf f5 69 9b 3f
       -0.19582571 1.2888099 -0.9676626 1.214171
000250 68 bb f6 3c db 04 86 be 72 bf e2 3f 34 f3 44 be
       0.03011866 -0.2617558 1.7714674 -0.192334
000260 3f 3c 08 3f 53 8d 08 bd 8d 9c 41 3f ec 6c d6 be
       0.5321693 -0.033337902 0.756295 -0.41879976
000270 4e 32 ea 3f 14 94 45 be 93 29 85 be fc af 32 3e
       1.8296602 -0.19294769 -0.2600828 0.17449945
000280 ed 2c 29 bd ff 05 50 be 48 a0 cc 3b 6f ae 42 3d
       -0.04130261 -0.20314787 0.006244693 0.047529634
000290 cf 8c 0b be c0 dc 13 ba c3 6b bf bd aa 6c 8b 3d
       -0.13627933 -0.00056404993 -0.09346726 0.068078354
0002a0 bf 78 4d be ff 5d d1 bd bb f2 2e 3c 70 b1 2e be
       -0.20065592 -0.102230065 0.010677989 -0.17059875
0002b0 e0 46 3a be 98 00 5f be d7 75 3f be 16 7e a6 bc
       -0.18191099 -0.2177757 -0.18697296 -0.020323794
0002c0 32 42 53 3d 02 d7 b5 3c b8 2e d5 3c e6 de 0a be
       0.0515768 0.02219725 0.026023254 -0.13561592
0002d0 d6 7e ab bd b8 58 b9 3b 0b 8b b1 3d 01 4a 64 3d
       -0.083738014 0.005656328 0.086690985 0.055734638
0002e0 cd 58 37 bd bf 40 1a be 79 76 21 be 84 66 64 bc
       -0.04476242 -0.15063761 -0.1576785 -0.013940457
0002f0 f6 55 6a bd e2 d4 d3 3c 4e 1b 75 bd e8 5f e0 bd
       -0.057210885 0.025858346 -0.059840493 -0.10955793
000300 52 61 9b 3c 5c 4e 01 3d a0 8c d6 ba 8e b9 12 be
       0.018967304 0.03156887 -0.0016368814 -0.14328596
000310 ee 3a a3 bd 7c 49 e1 3c ec a3 8c 3d 1d 9f fe bd
       -0.07970224 0.02750086 0.06867203 -0.12432692
000320 2f 0e 21 be 34 1e 87 be 8c 23 22 3e 9a 52 ce bc
       -0.15728067 -0.2639023 0.15833873 -0.025185872
000330 08 d0 85 3c e7 ad fb bd 25 2b d5 bd fc f3 7b bd
       0.016334549 -0.122890286 -0.1040862 -0.06151198
000340 2a a8 d4 3d c6 10 69 bd 03 b6 35 3d 3f e3 a8 3c
       0.10383637 -0.056900762 0.044363033 0.020616172
000350 32 43 2b be ca 41 fa bd 1a f1 70 3d 6d e4 b3 bd
       -0.16724852 -0.122195795 0.058823682 -0.08783803
000360 55 12 13 be 96 d2 93 bd 5e 7d 34 be 8c 8d 86 3d
       -0.14362462 -0.072179005 -0.17625949 0.06569967
000370 90 0d 43 be ce c4 6d bc 0f 88 bb bd 85 20 2e 3d
       -0.19048142 -0.014512254 -0.091568105 0.04251148
000380 19 7c 31 bf 52 1a 85 3e e9 3f d8 bc b5 7e d1 3f
       -0.69329983 0.25996643 -0.026397662 1.6366793
000390 f2 c3 6d 3f 42 2d 1e 3e d8 75 3b bf 1d b3 6b be
       0.92877114 0.15446952 -0.7322669 -0.23017545
0003a0 ad 9d a7 3e b3 e5 bf 3f c3 e4 92 3f 70 50 15 3f
       0.32737485 1.4991974 1.1476063 0.5832586
0003b0 c3 fa 9e be 94 99 2b 3f 47 bb 83 3c d8 0a 02 3f
       -0.3105069 0.67031217 0.016080512 0.50797796
0003c0 6f 6b e9 3e e2 00 84 3f ae 15 16 3f f6 cd 7b 3e
       0.45589778 1.031277 0.5862683 0.24590287
0003d0 0d 07 f0 3d 7a 15 c4 3e 4c 29 e9 3e 0a 0a 68 bf
       0.11720095 0.38297635 0.4553932 -0.9064032
0003e0 e8 d2 fb bd d4 0f a3 3c 5d 83 43 3f 12 82 1f be
       -0.122960865 0.019905008 0.7637232 -0.15576962
0003f0 2f a5 1d 3f cd 1f c3 3e 05 df a9 3c ed 89 e4 bc
       0.61580175 0.381102 0.020736227 -0.0278978

fc3.bias f4 [32]
000000 f8 a4 56 be c1 87 7d be 55 03 5f 3c 6e 87 9a 3e
       -0.20961368 -0.24758817 0.013611634 0.3018145
000010 71 8b 52 3f c9 9c fd bd f4 a2 4b 3f fd 78 00 bf
       0.8224402 -0.1238342 0.7954552 -0.50184613
000020 a2 c9 69 bf 32 cb 65 bf 81 8a 11 bf ea c0 80 be
       -0.9132329 -0.89763176 -0.56851965 -0.25147182
000030 1b d6 bf bd dd df f1 3e ac a5 70 3c 88 b4 ab be
       -0.09367009 0.47241107 0.014687937 -0.33536172
000040 86 25 4f bf 3a 5e 2d 3e d3 e9 4d 3f b3 69 7c be
       -0.8091663 0.16930476 0.8043491 -0.24649696
000050 30 e4 9e be 74 24 50 be a8 ab 11 bf c6 11 68 be
       -0.31033468 -0.20326406 -0.5690255 -0.2266303
000060 cc bc 06 3c 78 84 1f be 62 20 87 be a3 a0 10 3f
       0.008223724 -0.15577877 -0.26391894 0.5649511
000070 5a 24 63 be 61 60 4c 3e ca ed 68 be 99 e6 e7 be
       -0.22181836 0.1995864 -0.2274696 -0.4529312

fc3.weight f4 [32, 32]
000000 a3 26 72 bd 20 c6 12 be 55 47 51 be 24 f0 fd bd
       -0.059118878 -0.14333391 -0.20437367 -0.12399319
000010 59 46 90 be 04 f2 89 bd 9c 5e 11 3e fd de c3 be
       -0.2817867 -0.06735614 0.14196247 -0.38256064
000020 35 22 c5 be 02 9c 3e 3d 39 b0 0c bf e9 d8 00 bd
       -0.3850266 0.0465355 -0.54956394 -0.03145686
000030 4a f8 42 3e 5e 1c 9b be 58 b1 7c bd ff f9 c1 be
       0.19040027 -0.3029508 -0.061692566 -0.37886044
000040 63 e8 98 be 47 67 cf bc 65 fa fe bd 40 7d 4e 3e
       -0.29864797 -0.025317801 -0.12450103 0.20164967
000050 54 16 a6 3c 52 60 b4 bd ff 8a 6c bd 26 65 95 be
       0.020274319 -0.08807434 -0.057749745 -0.29178733
000060 1b ce 95 be 9b e3 f5 3d c8 4c 12 be fe ca 4f 3e
       -0.29258808 0.12006303 -0.14287102 0.20292279
000070 85 ba f2 3d f2 29 f3 bd 86 60 db bd 77 fb fd be
       0.11851982 -0.11873235 -0.1071177 -0.49605915
000080 ce 01 88 bd 5f e9 a7 3d dd 99 f6 bd 56 82 97 bc
       -0.06640969 0.08198809 -0.12041066 -0.018494766
000090 1a 78 e4 bd b4 21 1c be 12 ef e5 bd 0e f5 87 bc
       -0.1115572 -0.15247232 -0.1122724 -0.016596343
0000a0 e4 df c9 3c 54 6a 98 3b 25 3b 99 bd 01 5d 1a 3c
       0.024642892 0.004651347 -0.07481984 0.009421588
0000b0 34 24 c4 3d 7e 10 f8 bd 7f cb 1d be d3 fa 08 be
       0.09577218 -0.12112521 -0.15409659 -0.13376932
0000c0 a6 0e 92 bc 44 1a 07 be 92 20 24 3d 0a 2c 1c bd
       -0.01782925 -0.13193613 0.040070124 -0.038127936
0000d0 ba 08 d6 bd 3e fe 47 be 99 5e 24 bc 58 63 88 3b
       -0.10450883 -0.1953058 -0.010032319 0.0041622333
0000e0 3c 91 26 3c 41 d9 64 3b cd e1 0a 3e 82 fd 8b bd
       0.0101664625 0.0034919532 0.13562699 -0.06835462
0000f0 64 a6 6c bd 15 5c c4 bd 84 97 84 3d f4 36 9c bc
       -0.05777587 -0.09587876 0.06474212 -0.019069172
000100 11 f5 b4 3d 7f c1 00 3e cb e7 e6 bf 00 42 a8 3e
       0.08835805 0.12573813 -1.8039488 0.32862854
000110 5f 4c 44 3f ae 67 ea 3d 22 58 19 3e c3 3f 6b 3f
       0.76679033 0.114455566 0.14975026 0.9189417
000120 4f 42 15 3f 3c ff b4 3c 94 e8 0b bf d9 35 3d 3e
       0.58304304 0.022094361 -0.5465176 0.18477573
000130 9a 78 1a 3d cc 9e 11 3f 5a 23 7b 3e f7 28 c6 bf
       0.03771267 0.5688293 0.24525204 -1.5481251
000140 db 7a 44 3f b8 14 a3 be 71 a9 1b 3d 00 4a 9e 3c
       0.7674996 -0.31851745 0.03800339 0.019322395
000150 16 78 54 3e 97 63 18 3e 86 47 23 be af bc 20 3e
       0.20748934 0.1488174 -0.15945253 0.15696977
000160 e9 ba 12 3f c0 f1 3a bd f3 c1 01 3e 21 c9 28 bf
       0.5731645 -0.045640707 0.12671642 -0.659319
000170 bc e7 90 bd 6a b9 81 bd 93 b2 3c 3f 8f 9b 28 bd
       -0.0707545 -0.06334193 0.7370998 -0.041163977
000180 39 32 62 bf 2d ec 0e 3e 89 75 a6 be 2d da 95 3e
       -0.88357884 0.13957281 -0.32511547 0.29268017
000190 b8 66 55 3f 60 97 5a 3e c2 be 4f bd dd 35 9a bf
       0.8335986 0.21346807 -0.05071903 -1.2047688
0001a0 ec d3 94 3f f4 71 d2 3c a0 6c b1 3f ac 11 f5 3e
       1.1627173 0.025689103 1.3861275 0.47865045
0001b0 38 69 8c bc af d9 a3 3e df 8a ac 3e 74 2d 5c 3f
       -0.017140016 0.32002017 0.336997 0.86006856
0001c0 09 8e 1b be b5 50 3c 3e b9 38 11 3d df 3c 85 bd
       -0.15190901 0.18390162 0.035454486 -0.06505751
0001d0 e3 47 08 bf 73 27 81 be 78 d3 79 bc c1 fd 9a 3f
       -0.5323469 -0.2522541 -0.015248172 1.210869
0001e0 93 65 c0 3e b4 a2 bb 3e 2a 44 21 3f 1a 39 de be
       0.37577495 0.3664757 0.62994635 -0.4340294
0001f0 ee bd 07 3e 5e 96 80 3e e4 1d 46 3f 01 fb 38 bf
       0.13256046 0.2511472 0.7738936 -0.72258
000200 ba 08 85 bf 49 28 e3 3d e0 0c db 3d de 24 92 3f
       -1.0393288 0.11091668 0.10695815 1.1417501
000210 13 a8 a5 3d 57 4a 54 3e 12 c4 bf 3d 29 45 03 bf
       0.08088698 0.20731483 0.09363569 -0.51277405
000220 7f 36 59 3f 4a 8b 01 3e 19 35 8d be f2 a6 90 be
       0.8484878 0.12650791 -0.27579573 -0.2825237
000230 43 47 27 bd 9c c6 ad bd c2 2f 37 3f b4 bb 5a bf
       -0.040839445 -0.08485147 0.7155725 -0.8544266
000240 27 47 48 be a4 2a 0c 3f 99 d3 68 bd cd 39 83 bd
       -0.19558392 0.54752564 -0.05684242 -0.06407509
000250 7d 22 f5 bf 54 bb 90 bf 7f 0c a2 bd 9f d8 f7 3e
       -1.915115 -1.1307168 -0.0791254 0.48407456
000260 49 48 a9 3e 21 a0 a1 3e 74 92 db 3e 1e 56 4b bf
       0.33062962 0.3156748 0.42885172 -0.7942828
000270 98 67 55 bc 61 27 74 bf a7 aa 01 3e ba 6e ad bf
       -0.013025187 -0.9537259 0.12662755 -1.3549416
000280 47 87 12 bf 91 72 c9 3e 02 e1 93 bf 53 de de be
       -0.57237667 0.3934522 -1.1553042 -0.43528995
000290 10 07 13 3e 8c 52 ed bd e6 d6 83 bd 3c 42 94 bd
       0.14358163 -0.1158801 -0.06437473 -0.07239196
0002a0 21 19 a0 3f 7f 00 b5 3c 1a 5d 1e bf f5 7a 12 3f
       1.2507669 0.022094963 -0.6186081 0.5721887
0002b0 b6 d9 c2 3d 66 3d d8 3e c8 e5 b9 be da 41 fc bf
       0.09514181 0.42234343 -0.36308122 -1.9707596
0002c0 68 9c e2 bd e4 88 a7 be 73 3f bf bd 5e 98 5b be
       -0.110649884 -0.32721627 -0.09338274 -0.21444842
0002d0 c9 05 03 3e ea a1 ab bd 3e 07 f3 3d 45 7f 9c 3e
       0.12795176 -0.08380492 0.11866616 0.3056585
0002e0 6f 6a 17 3e ad 8e fb 3d 1a a2 2e bf c2 4f 9e bd
       0.14786695 0.122830726 -0.682161 -0.07730056
0002f0 0e 2a 67 3d f8 a5 0a bd 77 4e e8 3e f8 d3 c6 3e
       0.05643659 -0.033849686 0.45372364 0.38833594
000300 b4 43 be bf e2 e2 80 3e 66 e2 3f 3e af 97 7b 3f
       -1.4864411 0.25173098 0.18738708 0.98278326
000310 5b dd 52 3e 0f db 5b bd 2b 26 3c 3c a4 15 17 bf
       0.20592253 -0.053675707 0.011483709 -0.59017396
000320 6e f1 54 3f 14 18 aa 3c 4e 73 26 bf 3e dc 00 bd
       0.8318089 0.020763434 -0.6501969 -0.03146004
000330 20 8c b4 bd a9 34 8c be ec 28 11 3f 3d 0d c7 3e
       -0.08815789 -0.27383927 0.56703067 0.38877288
000340 1c c8 2c 3f 3d c5 7a 3e 86 c2 86 bd 4a 26 9f 3d
       0.6749284 0.24489303 -0.06580071 0.07770975
000350 5c aa e4 bf b4 b0 76 bf 38 5e fb 3b b6 97 23 3f
       -1.786449 -0.9636338 0.007671144 0.6390337
000360 04 26 63 3e 29 fa ce 3e 41 50 16 3f 76 01 9a bf
       0.2218247 0.40425232 0.5871621 -1.2031696
000370 43 ee 0a 3e 39 0d 89 bf 97 45 c6 3e 7e 62 c1 bf
       0.13567452 -1.070716 0.38724968 -1.5108182
000380 ce 9c d7 bd 2b 74 19 3e 8a af 68 bf ec 03 0e 3d
       -0.10527955 0.14985721 -0.9089285 0.03467171
000390 bb b6 a5 be 3c ac a7 bd 47 5e b0 3d 7c 06 80 bd
       -0.32365975 -0.08187148 0.08611732 -0.06251237
0003a0 2f 4b bd 3d c7 08 14 be ff 18 dc be c6 7d 3a 3d
       0.09242856 -0.14456473 -0.4298782 0.045530103
0003b0 26 38 a0 bd 79 25 93 be c0 e5 cc 3d 41 0a 53 bf
       -0.078232095 -0.28739527 0.10004759 -0.8243752
0003c0 6c d4 d7 3d b7 cf 3d be 60 35 60 3c d2 05 04 bd
       0.10538563 -0.18536268 0.013684601 -0.032232113
0003d0 12 74 ff bd a6 04 6f be a8 76 87 bc ad 92 ce bc
       -0.124733105 -0.23341617 -0.016536072 -0.025216425
0003e0 78 51 0c be d2 2c 36 be 22 6d 3c be c4 01 82 bc
       -0.13702953 -0.17790535 -0.18401006 -0.015869983
0003f0 56 63 f4 3d 0b b1 db bd ae 67 2e be 74 88 19 be
       0.11933009 -0.10727128 -0.17031738 -0.14993459

fc4.bias f4 [32]
000000 b4 5e 90 3f 89 8c 42 bd 3d 3b cb be 8f 2e b7 bd
       1.1278901 -0.047497306 -0.39693633 -0.08944427
000010 f0 7a b1 3e 88 28 14 3e 5b 0e 0f be 34 07 8c be
       0.34664106 0.14468586 -0.1397032 -0.27349246
000020 c7 b3 2d 3f b4 18 83 3f 66 ee bb 3d 78 90 f6 3e
       0.67852443 1.0241914 0.0917633 0.48157096
000030 08 85 fd 3d b1 4a 1c be af 5b 86 be 66 6d bf be
       0.12378889 -0.15262868 -0.26241824 -0.37388152
000040 4c 82 ae be fa 43 46 be 40 9e ca bc 18 a1 05 bf
       -0.34083784 -0.19361869 -0.024733663 -0.52198935
000050 02 33 c4 be 9c 1e 19 be 2a 8b 34 be 2f 58 0a bf
       -0.38320166 -0.14953083 -0.17631212 -0.5404081
000060 bd 63 ab be 45 7d bd be ef 5f 95 be b5 33 8f be
       -0.33474532 -0.37009636 -0.29174754 -0.27969137
000070 54 1e c2 3e e5 e3 c4 be 1f dc 90 3f 78 71 a0 bd
       0.37913764 -0.3845512 1.1317176 -0.078341424

fc4.weight f4 [32, 32]
000000 a1 c3 8c bd 98 dd be bd 62 72 ac 3e 6c ee 36 3f
       -0.06873251 -0.093196094 0.33681017 0.7145755
000010 8a 33 67 bf 1b 56 fc 3e a0 c4 92 bf 00 7a 74 3c
       -0.9031302 0.49284443 -1.1466255 0.014921665
000020 9b 63 b9 be 18 e4 1e 3f 48 2d 3f 3f 63 8d cc bd
       -0.36208805 0.62066793 0.7467847 -0.09987905
000030 27 a4 0a be 77 e0 46 bf 0b 05 93 3e aa ca c3 3e
       -0.13539182 -0.77686256 0.28714785 0.38240558
000040 6c 55 10 be 20 29 1a 3f 1b 88 86 bf 20 c4 c9 ba
       -0.14095086 0.60219 -1.0510286 -0.0015393533
000050 88 cb 03 3d 46 ef 40 bd 13 32 3c 3e 09 c0 59 bd
       0.032176524 -0.04710319 0.18378477 -0.053161655
000060 9f 68 a5 3e 31 e4 25 3d 8a 2f 3c 3e a3 4e 4e bf
       0.32306382 0.040500823 0.1837751 -0.8058874
000070 e3 dd 7a 3d c2 cc e2 3e df 72 16 3e 0d 74 f1 3e
       0.061246764 0.44296843 0.14692257 0.47158852
000080 78 f8 55 be 24 22 59 3d 8f cd 8a be 40 2a 70 3e
       -0.20895565 0.053011075 -0.27109954 0.23453617
000090 2e 77 e9 3d 3c 87 1b bd 72 82 15 be f7 c0 7d 3d
       0.11399685 -0.037970766 -0.14600542 0.061951604
0000a0 4a 51 91 3e 6d cd 07 3f 8b 6f 04 3e f3 21 6f bd
       0.2838233 0.5304783 0.12933175 -0.058381986
0000b0 95 94 bf 3d ea 03 b7 be 1c 40 0c bf 7c dd 9e be
       0.09354512 -0.35745174 -0.54785323 -0.31028354
0000c0 b8 f5 04 3e dd a0 85 3e 3b 42 62 bf da 2c ac bc
       0.1298436 0.2609929 -0.8838231 -0.02101748
0000d0 47 e1 f8 bd 02 90 8a bc 62 c0 0a 3e 86 60 3c 3e
       -0.12152343 -0.016914371 0.1354995 0.18396196
0000e0 9b 61 17 3f e4 26 22 be 6a 49 c9 3e b5 c8 80 bd
       0.5913331 -0.15835148 0.39313823 -0.06288282
0000f0 25 44 02 3e 3f 95 b8 3e d8 05 63 3e 87 6b 54 3e
       0.12721308 0.36051366 0.22170198 0.20744143
000100 26 1e b1 3d 31 0e 99 3c 56 94 15 be bd 05 e9 3d
       0.086483285 0.018683525 -0.14607367 0.113780476
000110 9d d0 53 3d 6f 6d bb 3e 3e 0a ab bd a4 55 d7 3d
       0.05171262 0.3660693 -0.08351563 0.105143815
000120 22 da 18 3e dd 75 5e 3e ff 5a 73 3e 47 e3 c4 bc
       0.14926961 0.21724649 0.23765181 -0.024034156
000130 9f 79 e1 bd 8b d6 41 be 6c 4e 14 be fd a5 d8 3d
       -0.110095255 -0.18929498 -0.1448304 0.10578535
000140 e9 67 bf 3e 48 0a eb 3e 44 70 d3 be b7 e8 52 bd
       0.37383965 0.4590628 -0.4129659 -0.051491465
000150 d6 71 ab 3e dd 30 d8 bc b5 e3 35 3f ff dd 84 3e
       0.33485287 -0.026390487 0.7105058 0.2595062
000160 30 50 04 be 35 88 2f be 31 0b 26 3e ab bf a3 be
       -0.12921214 -0.17141803 0.16215207 -0.3198217
000170 25 03 3c bd ff 99 78 3e 84 0c 14 be 13 e0 6a 3e
       -0.045901436 0.24277495 -0.144579 0.2293704
000180 a5 15 01 be 07 c7 87 3c 5f 40 38 be 6f d6 1a 3d
       -0.12605913 0.016574396 -0.17993306 0.037802156
000190 08 79 a9 3e 87 ec 52 be a4 5b da 3d 4e ec f2 bc
       0.33100152 -0.2059804 0.1066201 -0.029653694
0001a0 af b8 53 3e 0b bf 35 3f 85 a8 bc be a1 7c 25 3e
       0.2067592 0.70994633 -0.3684732 0.16160823
0001b0 c7 cb ea 3d 8f f0 b3 bd 82 d0 e9 be 32 49 e5 be
       0.11464649 -0.08786117 -0.4566689 -0.44782406
0001c0 10 f4 e3 3d f1 a7 5c 3e c5 b4 f8 bc 10 de 30 be
       0.111305356 0.2154844 -0.030359635 -0.1727221
0001d0 24 0a 89 3e 81 5f 91 3c 8e ab 99 be d0 b0 6b 3c
       0.2676555 0.017745735 -0.30013698 0.014385417
0001e0 49 a9 8b be b2 00 70 be 18 67 3c 3d e2 97 49 3c
       -0.27277592 -0.23437765 0.045996755 0.012304278
0001f0 cd 2a d6 bd e6 d3 93 3d 37 5f d3 3d 06 a9 52 3b
       -0.10457382 0.07218151 0.10320895 0.0032144203
000200 be fd 33 3d c2 5f 7b 3d 4e 39 84 be 0d c4 a3 bc
       0.04394316 0.06137062 -0.2582497 -0.019990945
000210 f4 15 3d 3f 5a d0 8b bf f6 6e 1b 3f 82 64 4c bc
       0.7386162 -1.0922959 0.6071619 -0.012475135
000220 3d db 7a 3d de a9 90 3f 85 8a 3a be 41 d7 68 3b
       0.06124424 1.1301839 -0.18216904 0.0035528692
000230 ee ce e1 bd e9 27 3f bf 2e 47 2c bf 98 7e 6b bf
       -0.11025797 -0.74670273 -0.6729611 -0.9199004
000240 90 9c 0a 3e 5c 4f ee bb 9e 16 5a be 3d 9e 6a 3d
       0.13536286 -0.007272644 -0.2129769 0.057279814
000250 8c 28 94 3d 19 89 93 bc 14 ee 03 bf 6e b5 cc 3d
       0.07234296 -0.01800971 -0.51535153 0.099955425
000260 a0 77 82 be 9c 1c 26 be b3 52 bb bd 20 8c ba 3e
       -0.25481892 -0.16221851 -0.09146633 0.36435032
000270 28 c7 83 bd b2 5a 4f bd bf 0f 22 3d 16 c0 ad 3c
       -0.064344704 -0.050623603 0.039565798 0.021209758
000280 7e f9 b0 3d 0c 33 6f 3e 18 11 ba bd a2 bd 6e bd
       0.08641337 0.23359317 -0.090852916 -0.058286317
000290 3d f7 d2 be 45 11 83 be 42 0c d7 be 16 f3 f9 bc
       -0.41204253 -0.25599113 -0.4200154 -0.03051142
0002a0 f2 bf f9 3d a5 5f f0 3e e0 b2 f5 3e 51 de 65 3d
       0.12194814 0.4694797 0.47988033 0.05612022
0002b0 0f ea 31 bd f1 01 15 bf dd 2d 99 be 8e 00 75 3e
       -0.043436106 -0.5820609 -0.29917803 0.23925993
0002c0 7d 62 54 3f d5 00 33 3d 18 10 a1 bf 84 60 68 bc
       0.8296278 0.043701965 -1.2583036 -0.014183167
0002d0 03 d2 58 3e 10 c6 27 3e 52 e2 56 3d 1d e7 02 bd
       0.21173863 0.16384149 0.05246193 -0.031958688
0002e0 a6 3d 9a be e0 14 1c be e5 1d 17 be 0a ec 42 bf
       -0.3012516 -0.15242338 -0.14757498 -0.7614142
0002f0 fe c7 85 bd 3c c7 90 be 8b a3 04 be f9 d7 ea bc
       -0.06532286 -0.28277004 -0.12953012 -0.028667437
000300 60 8c b2 3b 28 57 ba 3d c5 dd 0c be fc a6 d4 3d
       0.005448863 0.09098655 -0.13756473 0.10383412
000310 5e 14 53 bc 25 1f 09 be 9d 5e a9 bd ff bc 8b be
       -0.012883274 -0.13390787 -0.08269999 -0.2729263
000320 84 e0 2b 3e 0a 67 29 3d 00 0e b7 be bd 92 d4 bc
       0.16784865 0.04135803 -0.3575287 -0.025948877
000330 b1 f5 e5 3d e8 54 97 bb 36 0f 4c be 28 e1 f2 bc
       0.112285025 -0.004618276 -0.19927678 -0.029648378
000340 2c d2 56 3c 12 09 c2 bd 14 a3 b1 be 4b 7b 8d 3c
       0.013111632 -0.09474386 -0.3469473 0.017270705
000350 cf 18 c7 3d dc 56 33 3d af 74 86 3e 35 f0 d8 bd
       0.09721529 0.043784007 0.26260898 -0.10592691
000360 85 04 b8 3d fe 19 26 be 20 16 22 be 51 4c ca bd
       0.08985237 -0.16220853 -0.15828753 -0.098778374
000370 17 58 db 3d e8 88 e7 bc 35 ce 18 bb 6d e0 15 be
       0.10710161 -0.028263524 -0.0023316268 -0.14636393
000380 f6 da f6 bd 94 6b 96 3d 22 a2 7a be 1b 64 82 bc
       -0.12053482 0.07344738 -0.24475911 -0.015916875
000390 12 9f 32 3d e8 e9 8c be 00 fe 26 bd de 8b 97 3d
       0.043608733 -0.27522206 -0.040769577 0.073997244
0003a0 49 de 86 3d 15 86 c0 3d 33 2a bc be 9a 7b 73 3d
       0.06585366 0.09400574 -0.36750945 0.059444048
0003b0 84 d0 05 3e a8 b0 56 bd c4 00 a6 be 9b 57 a1 be
       0.13067824 -0.052414566 -0.3242246 -0.3151215
0003c0 14 81 7a be a4 68 cd bd 7b 91 05 be 78 b6 e1 3c
       -0.24463302 -0.10029724 -0.13043778 0.027552828
0003d0 98 10 11 3e dd ef c6 3d a3 93 95 be 2c fb e3 bd
       0.14166486 0.09713719 -0.292142 -0.111318916
0003e0 0b 62 4c bd 0f 19 0a 3d bb 0e d0 bd 1a 18 b2 bc
       -0.04989819 0.033715304 -0.101590596 -0.021740008
0003f0 f0 a8 2f 3e dc f2 5b 3d 89 cd 8f 3d 47 2c c3 be
       0.17154288 0.053698406 0.070216246 -0.38119718

fc5.weight f4 [1, 32]
000000 b9 ed ab be f8 89 9e bd 3a df 0a bd d0 1e ef 3d
       -0.33579805 -0.07741159 -0.03390429 0.11675799
000010 43 99 54 3e 87 b6 23 3c 24 8d d9 3c e7 3a 79 ba
       0.2076159 0.009992248 0.026556559 -0.00095073733
000020 52 20 01 be d5 cc 1c be 35 c5 35 3e db f6 55 bd
       -0.12609985 -0.15312512 0.1775101 -0.052237373
000030 b9 c4 af 3e 14 e3 85 3c 53 36 04 3f 7c a5 2c bd
       0.34329775 0.01634363 0.5164539 -0.042150006
000040 07 0c 3c 3d ca ce 8e 3d 8a 3f 86 3e 54 5e 0b 3c
       0.045909908 0.06973036 0.2622035 0.008506376
000050 b6 93 f4 bc 5e 4e d9 bc 16 6a 4c 3c 30 0a 20 bb
       -0.02985559 -0.026526626 0.012476465 -0.0024420135
000060 7d 9f 5d 3e c7 c0 2f bd 57 92 df bc 8e d0 f1 3c
       0.21642871 -0.042908456 -0.02729146 0.029518392
000070 de b2 8f 3e 39 8c 0d bd d1 6c 0e be 31 0b d2 3c
       0.28066152 -0.034557555 -0.13908698 0.025640102
